{"format": "graph-model", "modelTopology": {"node": [{"op": "Placeholder", "name": "global_step", "attr": {"shape": {"shape": {}}, "dtype": {"type": "DT_RESOURCE"}}}, {"op": "Const", "name": "cls/squad/output_weights", "attr": {"value": {"tensor": {"tensorShape": {"dim": [{"size": "2"}, {"size": "512"}]}, "dtype": "DT_FLOAT"}}, "dtype": {"type": "DT_FLOAT"}}}, {"op": "Const", "name": "cls/squad/output_bias", "attr": {"value": {"tensor": {"tensorShape": {"dim": [{"size": "2"}]}, "dtype": "DT_FLOAT"}}, "dtype": {"type": "DT_FLOAT"}}}, {"op": "Const", "name": "bert/encoder/layer_23/output/bottleneck/FakeLayerNorm/beta", "attr": {"value": {"tensor": {"tensorShape": {"dim": [{"size": "512"}]}, "dtype": "DT_FLOAT"}}, "dtype": {"type": "DT_FLOAT"}}}, {"op": "Const", "name": "bert/encoder/layer_23/output/bottleneck/FakeLayerNorm/gamma", "attr": {"value": {"tensor": {"tensorShape": {"dim": [{"size": "512"}]}, "dtype": "DT_FLOAT"}}, "dtype": {"type": "DT_FLOAT"}}}, {"op": "Const", "name": "bert/encoder/layer_23/output/bottleneck/dense/kernel", "attr": {"value": {"tensor": {"tensorShape": {"dim": [{"size": "128"}, {"size": "512"}]}, "dtype": "DT_FLOAT"}}, "dtype": {"type": "DT_FLOAT"}}}, {"op": "Const", "name": "bert/encoder/layer_23/output/bottleneck/dense/bias", "attr": {"value": {"tensor": {"tensorShape": {"dim": [{"size": "512"}]}, "dtype": "DT_FLOAT"}}, "dtype": {"type": "DT_FLOAT"}}}, {"op": "Const", "name": "bert/encoder/layer_23/output/FakeLayerNorm/beta", "attr": {"value": {"tensor": {"tensorShape": {"dim": [{"size": "128"}]}, "dtype": "DT_FLOAT"}}, "dtype": {"type": "DT_FLOAT"}}}, {"op": "Const", "name": "bert/encoder/layer_23/output/FakeLayerNorm/gamma", "attr": {"value": {"tensor": {"tensorShape": {"dim": [{"size": "128"}]}, "dtype": "DT_FLOAT"}}, "dtype": {"type": "DT_FLOAT"}}}, {"op": "Const", "name": "bert/encoder/layer_23/output/dense/kernel", "attr": {"value": {"tensor": {"tensorShape": {"dim": [{"size": "512"}, {"size": "128"}]}, "dtype": "DT_FLOAT"}}, "dtype": {"type": "DT_FLOAT"}}}, {"op": "Const", "name": "bert/encoder/layer_23/output/dense/bias", "attr": {"value": {"tensor": {"tensorShape": {"dim": [{"size": "128"}]}, "dtype": "DT_FLOAT"}}, "dtype": {"type": "DT_FLOAT"}}}, {"op": "Const", "name": "bert/encoder/layer_23/intermediate/dense/kernel", "attr": {"value": {"tensor": {"tensorShape": {"dim": [{"size": "128"}, {"size": "512"}]}, "dtype": "DT_FLOAT"}}, "dtype": {"type": "DT_FLOAT"}}}, {"op": "Const", "name": "bert/encoder/layer_23/intermediate/dense/bias", "attr": {"value": {"tensor": {"tensorShape": {"dim": [{"size": "512"}]}, "dtype": "DT_FLOAT"}}, "dtype": {"type": "DT_FLOAT"}}}, {"op": "Const", "name": "bert/encoder/layer_23/ffn_layer_2/output/FakeLayerNorm/beta", "attr": {"value": {"tensor": {"tensorShape": {"dim": [{"size": "128"}]}, "dtype": "DT_FLOAT"}}, "dtype": {"type": "DT_FLOAT"}}}, {"op": "Const", "name": "bert/encoder/layer_23/ffn_layer_2/output/FakeLayerNorm/gamma", "attr": {"value": {"tensor": {"tensorShape": {"dim": [{"size": "128"}]}, "dtype": "DT_FLOAT"}}, "dtype": {"type": "DT_FLOAT"}}}, {"op": "Const", "name": "bert/encoder/layer_23/ffn_layer_2/output/dense/kernel", "attr": {"value": {"tensor": {"tensorShape": {"dim": [{"size": "512"}, {"size": "128"}]}, "dtype": "DT_FLOAT"}}, "dtype": {"type": "DT_FLOAT"}}}, {"op": "Const", "name": "bert/encoder/layer_23/ffn_layer_2/output/dense/bias", "attr": {"value": {"tensor": {"tensorShape": {"dim": [{"size": "128"}]}, "dtype": "DT_FLOAT"}}, "dtype": {"type": "DT_FLOAT"}}}, {"op": "Const", "name": "bert/encoder/layer_23/ffn_layer_2/intermediate/dense/kernel", "attr": {"value": {"tensor": {"tensorShape": {"dim": [{"size": "128"}, {"size": "512"}]}, "dtype": "DT_FLOAT"}}, "dtype": {"type": "DT_FLOAT"}}}, {"op": "Const", "name": "bert/encoder/layer_23/ffn_layer_2/intermediate/dense/bias", "attr": {"value": {"tensor": {"tensorShape": {"dim": [{"size": "512"}]}, "dtype": "DT_FLOAT"}}, "dtype": {"type": "DT_FLOAT"}}}, {"op": "Const", "name": "bert/encoder/layer_23/ffn_layer_1/output/FakeLayerNorm/beta", "attr": {"value": {"tensor": {"tensorShape": {"dim": [{"size": "128"}]}, "dtype": "DT_FLOAT"}}, "dtype": {"type": "DT_FLOAT"}}}, {"op": "Const", "name": "bert/encoder/layer_23/ffn_layer_1/output/FakeLayerNorm/gamma", "attr": {"value": {"tensor": {"tensorShape": {"dim": [{"size": "128"}]}, "dtype": "DT_FLOAT"}}, "dtype": {"type": "DT_FLOAT"}}}, {"op": "Const", "name": "bert/encoder/layer_23/ffn_layer_1/output/dense/kernel", "attr": {"value": {"tensor": {"tensorShape": {"dim": [{"size": "512"}, {"size": "128"}]}, "dtype": "DT_FLOAT"}}, "dtype": {"type": "DT_FLOAT"}}}, {"op": "Const", "name": "bert/encoder/layer_23/ffn_layer_1/output/dense/bias", "attr": {"value": {"tensor": {"tensorShape": {"dim": [{"size": "128"}]}, "dtype": "DT_FLOAT"}}, "dtype": {"type": "DT_FLOAT"}}}, {"op": "Const", "name": "bert/encoder/layer_23/ffn_layer_1/intermediate/dense/kernel", "attr": {"value": {"tensor": {"tensorShape": {"dim": [{"size": "128"}, {"size": "512"}]}, "dtype": "DT_FLOAT"}}, "dtype": {"type": "DT_FLOAT"}}}, {"op": "Const", "name": "bert/encoder/layer_23/ffn_layer_1/intermediate/dense/bias", "attr": {"value": {"tensor": {"tensorShape": {"dim": [{"size": "512"}]}, "dtype": "DT_FLOAT"}}, "dtype": {"type": "DT_FLOAT"}}}, {"op": "Const", "name": "bert/encoder/layer_23/ffn_layer_0/output/FakeLayerNorm/beta", "attr": {"value": {"tensor": {"tensorShape": {"dim": [{"size": "128"}]}, "dtype": "DT_FLOAT"}}, "dtype": {"type": "DT_FLOAT"}}}, {"op": "Const", "name": "bert/encoder/layer_23/ffn_layer_0/output/FakeLayerNorm/gamma", "attr": {"value": {"tensor": {"tensorShape": {"dim": [{"size": "128"}]}, "dtype": "DT_FLOAT"}}, "dtype": {"type": "DT_FLOAT"}}}, {"op": "Const", "name": "bert/encoder/layer_23/ffn_layer_0/output/dense/kernel", "attr": {"value": {"tensor": {"tensorShape": {"dim": [{"size": "512"}, {"size": "128"}]}, "dtype": "DT_FLOAT"}}, "dtype": {"type": "DT_FLOAT"}}}, {"op": "Const", "name": "bert/encoder/layer_23/ffn_layer_0/output/dense/bias", "attr": {"value": {"tensor": {"tensorShape": {"dim": [{"size": "128"}]}, "dtype": "DT_FLOAT"}}, "dtype": {"type": "DT_FLOAT"}}}, {"op": "Const", "name": "bert/encoder/layer_23/ffn_layer_0/intermediate/dense/kernel", "attr": {"value": {"tensor": {"tensorShape": {"dim": [{"size": "128"}, {"size": "512"}]}, "dtype": "DT_FLOAT"}}, "dtype": {"type": "DT_FLOAT"}}}, {"op": "Const", "name": "bert/encoder/layer_23/ffn_layer_0/intermediate/dense/bias", "attr": {"value": {"tensor": {"tensorShape": {"dim": [{"size": "512"}]}, "dtype": "DT_FLOAT"}}, "dtype": {"type": "DT_FLOAT"}}}, {"op": "Const", "name": "bert/encoder/layer_23/attention/output/FakeLayerNorm/beta", "attr": {"value": {"tensor": {"tensorShape": {"dim": [{"size": "128"}]}, "dtype": "DT_FLOAT"}}, "dtype": {"type": "DT_FLOAT"}}}, {"op": "Const", "name": "bert/encoder/layer_23/attention/output/FakeLayerNorm/gamma", "attr": {"value": {"tensor": {"tensorShape": {"dim": [{"size": "128"}]}, "dtype": "DT_FLOAT"}}, "dtype": {"type": "DT_FLOAT"}}}, {"op": "Const", "name": "bert/encoder/layer_23/attention/output/dense/kernel", "attr": {"value": {"tensor": {"tensorShape": {"dim": [{"size": "128"}, {"size": "128"}]}, "dtype": "DT_FLOAT"}}, "dtype": {"type": "DT_FLOAT"}}}, {"op": "Const", "name": "bert/encoder/layer_23/attention/self/query/kernel", "attr": {"value": {"tensor": {"tensorShape": {"dim": [{"size": "128"}, {"size": "128"}]}, "dtype": "DT_FLOAT"}}, "dtype": {"type": "DT_FLOAT"}}}, {"op": "Const", "name": "bert/encoder/layer_23/attention/self/query/bias", "attr": {"value": {"tensor": {"tensorShape": {"dim": [{"size": "128"}]}, "dtype": "DT_FLOAT"}}, "dtype": {"type": "DT_FLOAT"}}}, {"op": "Const", "name": "bert/encoder/layer_23/attention/self/key/kernel", "attr": {"value": {"tensor": {"tensorShape": {"dim": [{"size": "128"}, {"size": "128"}]}, "dtype": "DT_FLOAT"}}, "dtype": {"type": "DT_FLOAT"}}}, {"op": "Const", "name": "bert/encoder/layer_23/attention/self/key/bias", "attr": {"value": {"tensor": {"tensorShape": {"dim": [{"size": "128"}]}, "dtype": "DT_FLOAT"}}, "dtype": {"type": "DT_FLOAT"}}}, {"op": "Const", "name": "bert/encoder/layer_23/bottleneck/attention/FakeLayerNorm/beta", "attr": {"value": {"tensor": {"tensorShape": {"dim": [{"size": "128"}]}, "dtype": "DT_FLOAT"}}, "dtype": {"type": "DT_FLOAT"}}}, {"op": "Const", "name": "bert/encoder/layer_23/bottleneck/attention/FakeLayerNorm/gamma", "attr": {"value": {"tensor": {"tensorShape": {"dim": [{"size": "128"}]}, "dtype": "DT_FLOAT"}}, "dtype": {"type": "DT_FLOAT"}}}, {"op": "Const", "name": "bert/encoder/layer_23/bottleneck/attention/dense/kernel", "attr": {"value": {"tensor": {"tensorShape": {"dim": [{"size": "512"}, {"size": "128"}]}, "dtype": "DT_FLOAT"}}, "dtype": {"type": "DT_FLOAT"}}}, {"op": "Const", "name": "bert/encoder/layer_23/bottleneck/attention/dense/bias", "attr": {"value": {"tensor": {"tensorShape": {"dim": [{"size": "128"}]}, "dtype": "DT_FLOAT"}}, "dtype": {"type": "DT_FLOAT"}}}, {"op": "Const", "name": "bert/encoder/layer_23/attention/self/value/kernel", "attr": {"value": {"tensor": {"tensorShape": {"dim": [{"size": "128"}, {"size": "128"}]}, "dtype": "DT_FLOAT"}}, "dtype": {"type": "DT_FLOAT"}}}, {"op": "Const", "name": "bert/encoder/layer_23/attention/self/value/bias", "attr": {"value": {"tensor": {"tensorShape": {"dim": [{"size": "128"}]}, "dtype": "DT_FLOAT"}}, "dtype": {"type": "DT_FLOAT"}}}, {"op": "Const", "name": "bert/encoder/layer_23/bottleneck/value/FakeLayerNorm/beta", "attr": {"value": {"tensor": {"tensorShape": {"dim": [{"size": "128"}]}, "dtype": "DT_FLOAT"}}, "dtype": {"type": "DT_FLOAT"}}}, {"op": "Const", "name": "bert/encoder/layer_23/bottleneck/value/FakeLayerNorm/gamma", "attr": {"value": {"tensor": {"tensorShape": {"dim": [{"size": "128"}]}, "dtype": "DT_FLOAT"}}, "dtype": {"type": "DT_FLOAT"}}}, {"op": "Const", "name": "bert/encoder/layer_23/bottleneck/value/dense/kernel", "attr": {"value": {"tensor": {"tensorShape": {"dim": [{"size": "512"}, {"size": "128"}]}, "dtype": "DT_FLOAT"}}, "dtype": {"type": "DT_FLOAT"}}}, {"op": "Const", "name": "bert/encoder/layer_23/bottleneck/value/dense/bias", "attr": {"value": {"tensor": {"tensorShape": {"dim": [{"size": "128"}]}, "dtype": "DT_FLOAT"}}, "dtype": {"type": "DT_FLOAT"}}}, {"op": "Const", "name": "bert/encoder/layer_23/attention/output/dense/bias", "attr": {"value": {"tensor": {"tensorShape": {"dim": [{"size": "128"}]}, "dtype": "DT_FLOAT"}}, "dtype": {"type": "DT_FLOAT"}}}, {"op": "Const", "name": "bert/encoder/layer_23/bottleneck/input/FakeLayerNorm/gamma", "attr": {"value": {"tensor": {"tensorShape": {"dim": [{"size": "128"}]}, "dtype": "DT_FLOAT"}}, "dtype": {"type": "DT_FLOAT"}}}, {"op": "Const", "name": "bert/encoder/layer_23/bottleneck/input/dense/kernel", "attr": {"value": {"tensor": {"tensorShape": {"dim": [{"size": "512"}, {"size": "128"}]}, "dtype": "DT_FLOAT"}}, "dtype": {"type": "DT_FLOAT"}}}, {"op": "Const", "name": "bert/encoder/layer_23/bottleneck/input/dense/bias", "attr": {"value": {"tensor": {"tensorShape": {"dim": [{"size": "128"}]}, "dtype": "DT_FLOAT"}}, "dtype": {"type": "DT_FLOAT"}}}, {"op": "Const", "name": "bert/encoder/layer_22/output/bottleneck/FakeLayerNorm/beta", "attr": {"value": {"tensor": {"tensorShape": {"dim": [{"size": "512"}]}, "dtype": "DT_FLOAT"}}, "dtype": {"type": "DT_FLOAT"}}}, {"op": "Const", "name": "bert/encoder/layer_22/output/bottleneck/FakeLayerNorm/gamma", "attr": {"value": {"tensor": {"tensorShape": {"dim": [{"size": "512"}]}, "dtype": "DT_FLOAT"}}, "dtype": {"type": "DT_FLOAT"}}}, {"op": "Const", "name": "bert/encoder/layer_22/output/bottleneck/dense/kernel", "attr": {"value": {"tensor": {"tensorShape": {"dim": [{"size": "128"}, {"size": "512"}]}, "dtype": "DT_FLOAT"}}, "dtype": {"type": "DT_FLOAT"}}}, {"op": "Const", "name": "bert/encoder/layer_22/output/bottleneck/dense/bias", "attr": {"value": {"tensor": {"tensorShape": {"dim": [{"size": "512"}]}, "dtype": "DT_FLOAT"}}, "dtype": {"type": "DT_FLOAT"}}}, {"op": "Const", "name": "bert/encoder/layer_22/output/FakeLayerNorm/beta", "attr": {"value": {"tensor": {"tensorShape": {"dim": [{"size": "128"}]}, "dtype": "DT_FLOAT"}}, "dtype": {"type": "DT_FLOAT"}}}, {"op": "Const", "name": "bert/encoder/layer_22/output/FakeLayerNorm/gamma", "attr": {"value": {"tensor": {"tensorShape": {"dim": [{"size": "128"}]}, "dtype": "DT_FLOAT"}}, "dtype": {"type": "DT_FLOAT"}}}, {"op": "Const", "name": "bert/encoder/layer_22/output/dense/kernel", "attr": {"value": {"tensor": {"tensorShape": {"dim": [{"size": "512"}, {"size": "128"}]}, "dtype": "DT_FLOAT"}}, "dtype": {"type": "DT_FLOAT"}}}, {"op": "Const", "name": "bert/encoder/layer_22/output/dense/bias", "attr": {"value": {"tensor": {"tensorShape": {"dim": [{"size": "128"}]}, "dtype": "DT_FLOAT"}}, "dtype": {"type": "DT_FLOAT"}}}, {"op": "Const", "name": "bert/encoder/layer_22/intermediate/dense/kernel", "attr": {"value": {"tensor": {"tensorShape": {"dim": [{"size": "128"}, {"size": "512"}]}, "dtype": "DT_FLOAT"}}, "dtype": {"type": "DT_FLOAT"}}}, {"op": "Const", "name": "bert/encoder/layer_22/intermediate/dense/bias", "attr": {"value": {"tensor": {"tensorShape": {"dim": [{"size": "512"}]}, "dtype": "DT_FLOAT"}}, "dtype": {"type": "DT_FLOAT"}}}, {"op": "Const", "name": "bert/encoder/layer_22/ffn_layer_2/output/FakeLayerNorm/beta", "attr": {"value": {"tensor": {"tensorShape": {"dim": [{"size": "128"}]}, "dtype": "DT_FLOAT"}}, "dtype": {"type": "DT_FLOAT"}}}, {"op": "Const", "name": "bert/encoder/layer_22/ffn_layer_2/output/FakeLayerNorm/gamma", "attr": {"value": {"tensor": {"tensorShape": {"dim": [{"size": "128"}]}, "dtype": "DT_FLOAT"}}, "dtype": {"type": "DT_FLOAT"}}}, {"op": "Const", "name": "bert/encoder/layer_22/ffn_layer_2/output/dense/kernel", "attr": {"value": {"tensor": {"tensorShape": {"dim": [{"size": "512"}, {"size": "128"}]}, "dtype": "DT_FLOAT"}}, "dtype": {"type": "DT_FLOAT"}}}, {"op": "Const", "name": "bert/encoder/layer_22/ffn_layer_2/output/dense/bias", "attr": {"value": {"tensor": {"tensorShape": {"dim": [{"size": "128"}]}, "dtype": "DT_FLOAT"}}, "dtype": {"type": "DT_FLOAT"}}}, {"op": "Const", "name": "bert/encoder/layer_22/ffn_layer_2/intermediate/dense/kernel", "attr": {"value": {"tensor": {"tensorShape": {"dim": [{"size": "128"}, {"size": "512"}]}, "dtype": "DT_FLOAT"}}, "dtype": {"type": "DT_FLOAT"}}}, {"op": "Const", "name": "bert/encoder/layer_22/ffn_layer_2/intermediate/dense/bias", "attr": {"value": {"tensor": {"tensorShape": {"dim": [{"size": "512"}]}, "dtype": "DT_FLOAT"}}, "dtype": {"type": "DT_FLOAT"}}}, {"op": "Const", "name": "bert/encoder/layer_22/ffn_layer_1/output/FakeLayerNorm/beta", "attr": {"value": {"tensor": {"tensorShape": {"dim": [{"size": "128"}]}, "dtype": "DT_FLOAT"}}, "dtype": {"type": "DT_FLOAT"}}}, {"op": "Const", "name": "bert/encoder/layer_22/ffn_layer_1/output/FakeLayerNorm/gamma", "attr": {"value": {"tensor": {"tensorShape": {"dim": [{"size": "128"}]}, "dtype": "DT_FLOAT"}}, "dtype": {"type": "DT_FLOAT"}}}, {"op": "Const", "name": "bert/encoder/layer_22/ffn_layer_1/output/dense/kernel", "attr": {"value": {"tensor": {"tensorShape": {"dim": [{"size": "512"}, {"size": "128"}]}, "dtype": "DT_FLOAT"}}, "dtype": {"type": "DT_FLOAT"}}}, {"op": "Const", "name": "bert/encoder/layer_22/ffn_layer_1/output/dense/bias", "attr": {"value": {"tensor": {"tensorShape": {"dim": [{"size": "128"}]}, "dtype": "DT_FLOAT"}}, "dtype": {"type": "DT_FLOAT"}}}, {"op": "Const", "name": "bert/encoder/layer_22/ffn_layer_1/intermediate/dense/kernel", "attr": {"value": {"tensor": {"tensorShape": {"dim": [{"size": "128"}, {"size": "512"}]}, "dtype": "DT_FLOAT"}}, "dtype": {"type": "DT_FLOAT"}}}, {"op": "Const", "name": "bert/encoder/layer_22/ffn_layer_1/intermediate/dense/bias", "attr": {"value": {"tensor": {"tensorShape": {"dim": [{"size": "512"}]}, "dtype": "DT_FLOAT"}}, "dtype": {"type": "DT_FLOAT"}}}, {"op": "Const", "name": "bert/encoder/layer_22/ffn_layer_0/output/FakeLayerNorm/beta", "attr": {"value": {"tensor": {"tensorShape": {"dim": [{"size": "128"}]}, "dtype": "DT_FLOAT"}}, "dtype": {"type": "DT_FLOAT"}}}, {"op": "Const", "name": "bert/encoder/layer_22/ffn_layer_0/output/FakeLayerNorm/gamma", "attr": {"value": {"tensor": {"tensorShape": {"dim": [{"size": "128"}]}, "dtype": "DT_FLOAT"}}, "dtype": {"type": "DT_FLOAT"}}}, {"op": "Const", "name": "bert/encoder/layer_22/ffn_layer_0/output/dense/kernel", "attr": {"value": {"tensor": {"tensorShape": {"dim": [{"size": "512"}, {"size": "128"}]}, "dtype": "DT_FLOAT"}}, "dtype": {"type": "DT_FLOAT"}}}, {"op": "Const", "name": "bert/encoder/layer_22/ffn_layer_0/output/dense/bias", "attr": {"value": {"tensor": {"tensorShape": {"dim": [{"size": "128"}]}, "dtype": "DT_FLOAT"}}, "dtype": {"type": "DT_FLOAT"}}}, {"op": "Const", "name": "bert/encoder/layer_22/ffn_layer_0/intermediate/dense/kernel", "attr": {"value": {"tensor": {"tensorShape": {"dim": [{"size": "128"}, {"size": "512"}]}, "dtype": "DT_FLOAT"}}, "dtype": {"type": "DT_FLOAT"}}}, {"op": "Const", "name": "bert/encoder/layer_22/ffn_layer_0/intermediate/dense/bias", "attr": {"value": {"tensor": {"tensorShape": {"dim": [{"size": "512"}]}, "dtype": "DT_FLOAT"}}, "dtype": {"type": "DT_FLOAT"}}}, {"op": "Const", "name": "bert/encoder/layer_22/attention/output/FakeLayerNorm/beta", "attr": {"value": {"tensor": {"tensorShape": {"dim": [{"size": "128"}]}, "dtype": "DT_FLOAT"}}, "dtype": {"type": "DT_FLOAT"}}}, {"op": "Const", "name": "bert/encoder/layer_22/attention/output/FakeLayerNorm/gamma", "attr": {"value": {"tensor": {"tensorShape": {"dim": [{"size": "128"}]}, "dtype": "DT_FLOAT"}}, "dtype": {"type": "DT_FLOAT"}}}, {"op": "Const", "name": "bert/encoder/layer_22/attention/output/dense/kernel", "attr": {"value": {"tensor": {"tensorShape": {"dim": [{"size": "128"}, {"size": "128"}]}, "dtype": "DT_FLOAT"}}, "dtype": {"type": "DT_FLOAT"}}}, {"op": "Const", "name": "bert/encoder/layer_22/attention/self/query/kernel", "attr": {"value": {"tensor": {"tensorShape": {"dim": [{"size": "128"}, {"size": "128"}]}, "dtype": "DT_FLOAT"}}, "dtype": {"type": "DT_FLOAT"}}}, {"op": "Const", "name": "bert/encoder/layer_22/attention/self/query/bias", "attr": {"value": {"tensor": {"tensorShape": {"dim": [{"size": "128"}]}, "dtype": "DT_FLOAT"}}, "dtype": {"type": "DT_FLOAT"}}}, {"op": "Const", "name": "bert/encoder/layer_22/attention/self/key/kernel", "attr": {"value": {"tensor": {"tensorShape": {"dim": [{"size": "128"}, {"size": "128"}]}, "dtype": "DT_FLOAT"}}, "dtype": {"type": "DT_FLOAT"}}}, {"op": "Const", "name": "bert/encoder/layer_22/attention/self/key/bias", "attr": {"value": {"tensor": {"tensorShape": {"dim": [{"size": "128"}]}, "dtype": "DT_FLOAT"}}, "dtype": {"type": "DT_FLOAT"}}}, {"op": "Const", "name": "bert/encoder/layer_22/bottleneck/attention/FakeLayerNorm/beta", "attr": {"value": {"tensor": {"tensorShape": {"dim": [{"size": "128"}]}, "dtype": "DT_FLOAT"}}, "dtype": {"type": "DT_FLOAT"}}}, {"op": "Const", "name": "bert/encoder/layer_22/bottleneck/attention/FakeLayerNorm/gamma", "attr": {"value": {"tensor": {"tensorShape": {"dim": [{"size": "128"}]}, "dtype": "DT_FLOAT"}}, "dtype": {"type": "DT_FLOAT"}}}, {"op": "Const", "name": "bert/encoder/layer_22/bottleneck/attention/dense/kernel", "attr": {"value": {"tensor": {"tensorShape": {"dim": [{"size": "512"}, {"size": "128"}]}, "dtype": "DT_FLOAT"}}, "dtype": {"type": "DT_FLOAT"}}}, {"op": "Const", "name": "bert/encoder/layer_22/bottleneck/attention/dense/bias", "attr": {"value": {"tensor": {"tensorShape": {"dim": [{"size": "128"}]}, "dtype": "DT_FLOAT"}}, "dtype": {"type": "DT_FLOAT"}}}, {"op": "Const", "name": "bert/encoder/layer_22/attention/self/value/kernel", "attr": {"value": {"tensor": {"tensorShape": {"dim": [{"size": "128"}, {"size": "128"}]}, "dtype": "DT_FLOAT"}}, "dtype": {"type": "DT_FLOAT"}}}, {"op": "Const", "name": "bert/encoder/layer_22/attention/self/value/bias", "attr": {"value": {"tensor": {"tensorShape": {"dim": [{"size": "128"}]}, "dtype": "DT_FLOAT"}}, "dtype": {"type": "DT_FLOAT"}}}, {"op": "Const", "name": "bert/encoder/layer_22/bottleneck/value/FakeLayerNorm/beta", "attr": {"value": {"tensor": {"tensorShape": {"dim": [{"size": "128"}]}, "dtype": "DT_FLOAT"}}, "dtype": {"type": "DT_FLOAT"}}}, {"op": "Const", "name": "bert/encoder/layer_22/bottleneck/value/FakeLayerNorm/gamma", "attr": {"value": {"tensor": {"tensorShape": {"dim": [{"size": "128"}]}, "dtype": "DT_FLOAT"}}, "dtype": {"type": "DT_FLOAT"}}}, {"op": "Const", "name": "bert/encoder/layer_22/bottleneck/value/dense/kernel", "attr": {"value": {"tensor": {"tensorShape": {"dim": [{"size": "512"}, {"size": "128"}]}, "dtype": "DT_FLOAT"}}, "dtype": {"type": "DT_FLOAT"}}}, {"op": "Const", "name": "bert/encoder/layer_22/bottleneck/value/dense/bias", "attr": {"value": {"tensor": {"tensorShape": {"dim": [{"size": "128"}]}, "dtype": "DT_FLOAT"}}, "dtype": {"type": "DT_FLOAT"}}}, {"op": "Const", "name": "bert/encoder/layer_22/attention/output/dense/bias", "attr": {"value": {"tensor": {"tensorShape": {"dim": [{"size": "128"}]}, "dtype": "DT_FLOAT"}}, "dtype": {"type": "DT_FLOAT"}}}, {"op": "Const", "name": "bert/encoder/layer_22/bottleneck/input/FakeLayerNorm/gamma", "attr": {"value": {"tensor": {"tensorShape": {"dim": [{"size": "128"}]}, "dtype": "DT_FLOAT"}}, "dtype": {"type": "DT_FLOAT"}}}, {"op": "Const", "name": "bert/encoder/layer_22/bottleneck/input/dense/kernel", "attr": {"value": {"tensor": {"tensorShape": {"dim": [{"size": "512"}, {"size": "128"}]}, "dtype": "DT_FLOAT"}}, "dtype": {"type": "DT_FLOAT"}}}, {"op": "Const", "name": "bert/encoder/layer_22/bottleneck/input/dense/bias", "attr": {"value": {"tensor": {"tensorShape": {"dim": [{"size": "128"}]}, "dtype": "DT_FLOAT"}}, "dtype": {"type": "DT_FLOAT"}}}, {"op": "Const", "name": "bert/encoder/layer_21/output/bottleneck/FakeLayerNorm/beta", "attr": {"value": {"tensor": {"tensorShape": {"dim": [{"size": "512"}]}, "dtype": "DT_FLOAT"}}, "dtype": {"type": "DT_FLOAT"}}}, {"op": "Const", "name": "bert/encoder/layer_21/output/bottleneck/FakeLayerNorm/gamma", "attr": {"value": {"tensor": {"tensorShape": {"dim": [{"size": "512"}]}, "dtype": "DT_FLOAT"}}, "dtype": {"type": "DT_FLOAT"}}}, {"op": "Const", "name": "bert/encoder/layer_21/output/bottleneck/dense/kernel", "attr": {"value": {"tensor": {"tensorShape": {"dim": [{"size": "128"}, {"size": "512"}]}, "dtype": "DT_FLOAT"}}, "dtype": {"type": "DT_FLOAT"}}}, {"op": "Const", "name": "bert/encoder/layer_21/output/bottleneck/dense/bias", "attr": {"value": {"tensor": {"tensorShape": {"dim": [{"size": "512"}]}, "dtype": "DT_FLOAT"}}, "dtype": {"type": "DT_FLOAT"}}}, {"op": "Const", "name": "bert/encoder/layer_21/output/FakeLayerNorm/beta", "attr": {"value": {"tensor": {"tensorShape": {"dim": [{"size": "128"}]}, "dtype": "DT_FLOAT"}}, "dtype": {"type": "DT_FLOAT"}}}, {"op": "Const", "name": "bert/encoder/layer_21/output/FakeLayerNorm/gamma", "attr": {"value": {"tensor": {"tensorShape": {"dim": [{"size": "128"}]}, "dtype": "DT_FLOAT"}}, "dtype": {"type": "DT_FLOAT"}}}, {"op": "Const", "name": "bert/encoder/layer_21/output/dense/kernel", "attr": {"value": {"tensor": {"tensorShape": {"dim": [{"size": "512"}, {"size": "128"}]}, "dtype": "DT_FLOAT"}}, "dtype": {"type": "DT_FLOAT"}}}, {"op": "Const", "name": "bert/encoder/layer_21/output/dense/bias", "attr": {"value": {"tensor": {"tensorShape": {"dim": [{"size": "128"}]}, "dtype": "DT_FLOAT"}}, "dtype": {"type": "DT_FLOAT"}}}, {"op": "Const", "name": "bert/encoder/layer_21/intermediate/dense/kernel", "attr": {"value": {"tensor": {"tensorShape": {"dim": [{"size": "128"}, {"size": "512"}]}, "dtype": "DT_FLOAT"}}, "dtype": {"type": "DT_FLOAT"}}}, {"op": "Const", "name": "bert/encoder/layer_21/intermediate/dense/bias", "attr": {"value": {"tensor": {"tensorShape": {"dim": [{"size": "512"}]}, "dtype": "DT_FLOAT"}}, "dtype": {"type": "DT_FLOAT"}}}, {"op": "Const", "name": "bert/encoder/layer_21/ffn_layer_2/output/FakeLayerNorm/beta", "attr": {"value": {"tensor": {"tensorShape": {"dim": [{"size": "128"}]}, "dtype": "DT_FLOAT"}}, "dtype": {"type": "DT_FLOAT"}}}, {"op": "Const", "name": "bert/encoder/layer_21/ffn_layer_2/output/FakeLayerNorm/gamma", "attr": {"value": {"tensor": {"tensorShape": {"dim": [{"size": "128"}]}, "dtype": "DT_FLOAT"}}, "dtype": {"type": "DT_FLOAT"}}}, {"op": "Const", "name": "bert/encoder/layer_21/ffn_layer_2/output/dense/kernel", "attr": {"value": {"tensor": {"tensorShape": {"dim": [{"size": "512"}, {"size": "128"}]}, "dtype": "DT_FLOAT"}}, "dtype": {"type": "DT_FLOAT"}}}, {"op": "Const", "name": "bert/encoder/layer_21/ffn_layer_2/output/dense/bias", "attr": {"value": {"tensor": {"tensorShape": {"dim": [{"size": "128"}]}, "dtype": "DT_FLOAT"}}, "dtype": {"type": "DT_FLOAT"}}}, {"op": "Const", "name": "bert/encoder/layer_21/ffn_layer_2/intermediate/dense/kernel", "attr": {"value": {"tensor": {"tensorShape": {"dim": [{"size": "128"}, {"size": "512"}]}, "dtype": "DT_FLOAT"}}, "dtype": {"type": "DT_FLOAT"}}}, {"op": "Const", "name": "bert/encoder/layer_21/ffn_layer_2/intermediate/dense/bias", "attr": {"value": {"tensor": {"tensorShape": {"dim": [{"size": "512"}]}, "dtype": "DT_FLOAT"}}, "dtype": {"type": "DT_FLOAT"}}}, {"op": "Const", "name": "bert/encoder/layer_21/ffn_layer_1/output/FakeLayerNorm/beta", "attr": {"value": {"tensor": {"tensorShape": {"dim": [{"size": "128"}]}, "dtype": "DT_FLOAT"}}, "dtype": {"type": "DT_FLOAT"}}}, {"op": "Const", "name": "bert/encoder/layer_21/ffn_layer_1/output/FakeLayerNorm/gamma", "attr": {"value": {"tensor": {"tensorShape": {"dim": [{"size": "128"}]}, "dtype": "DT_FLOAT"}}, "dtype": {"type": "DT_FLOAT"}}}, {"op": "Const", "name": "bert/encoder/layer_21/ffn_layer_1/output/dense/kernel", "attr": {"value": {"tensor": {"tensorShape": {"dim": [{"size": "512"}, {"size": "128"}]}, "dtype": "DT_FLOAT"}}, "dtype": {"type": "DT_FLOAT"}}}, {"op": "Const", "name": "bert/encoder/layer_21/ffn_layer_1/output/dense/bias", "attr": {"value": {"tensor": {"tensorShape": {"dim": [{"size": "128"}]}, "dtype": "DT_FLOAT"}}, "dtype": {"type": "DT_FLOAT"}}}, {"op": "Const", "name": "bert/encoder/layer_21/ffn_layer_1/intermediate/dense/kernel", "attr": {"value": {"tensor": {"tensorShape": {"dim": [{"size": "128"}, {"size": "512"}]}, "dtype": "DT_FLOAT"}}, "dtype": {"type": "DT_FLOAT"}}}, {"op": "Const", "name": "bert/encoder/layer_21/ffn_layer_1/intermediate/dense/bias", "attr": {"value": {"tensor": {"tensorShape": {"dim": [{"size": "512"}]}, "dtype": "DT_FLOAT"}}, "dtype": {"type": "DT_FLOAT"}}}, {"op": "Const", "name": "bert/encoder/layer_21/ffn_layer_0/output/FakeLayerNorm/beta", "attr": {"value": {"tensor": {"tensorShape": {"dim": [{"size": "128"}]}, "dtype": "DT_FLOAT"}}, "dtype": {"type": "DT_FLOAT"}}}, {"op": "Const", "name": "bert/encoder/layer_21/ffn_layer_0/output/FakeLayerNorm/gamma", "attr": {"value": {"tensor": {"tensorShape": {"dim": [{"size": "128"}]}, "dtype": "DT_FLOAT"}}, "dtype": {"type": "DT_FLOAT"}}}, {"op": "Const", "name": "bert/encoder/layer_21/ffn_layer_0/output/dense/kernel", "attr": {"value": {"tensor": {"tensorShape": {"dim": [{"size": "512"}, {"size": "128"}]}, "dtype": "DT_FLOAT"}}, "dtype": {"type": "DT_FLOAT"}}}, {"op": "Const", "name": "bert/encoder/layer_21/ffn_layer_0/output/dense/bias", "attr": {"value": {"tensor": {"tensorShape": {"dim": [{"size": "128"}]}, "dtype": "DT_FLOAT"}}, "dtype": {"type": "DT_FLOAT"}}}, {"op": "Const", "name": "bert/encoder/layer_21/ffn_layer_0/intermediate/dense/kernel", "attr": {"value": {"tensor": {"tensorShape": {"dim": [{"size": "128"}, {"size": "512"}]}, "dtype": "DT_FLOAT"}}, "dtype": {"type": "DT_FLOAT"}}}, {"op": "Const", "name": "bert/encoder/layer_21/ffn_layer_0/intermediate/dense/bias", "attr": {"value": {"tensor": {"tensorShape": {"dim": [{"size": "512"}]}, "dtype": "DT_FLOAT"}}, "dtype": {"type": "DT_FLOAT"}}}, {"op": "Const", "name": "bert/encoder/layer_21/attention/output/FakeLayerNorm/beta", "attr": {"value": {"tensor": {"tensorShape": {"dim": [{"size": "128"}]}, "dtype": "DT_FLOAT"}}, "dtype": {"type": "DT_FLOAT"}}}, {"op": "Const", "name": "bert/encoder/layer_21/attention/output/FakeLayerNorm/gamma", "attr": {"value": {"tensor": {"tensorShape": {"dim": [{"size": "128"}]}, "dtype": "DT_FLOAT"}}, "dtype": {"type": "DT_FLOAT"}}}, {"op": "Const", "name": "bert/encoder/layer_21/attention/output/dense/kernel", "attr": {"value": {"tensor": {"tensorShape": {"dim": [{"size": "128"}, {"size": "128"}]}, "dtype": "DT_FLOAT"}}, "dtype": {"type": "DT_FLOAT"}}}, {"op": "Const", "name": "bert/encoder/layer_21/attention/self/query/kernel", "attr": {"value": {"tensor": {"tensorShape": {"dim": [{"size": "128"}, {"size": "128"}]}, "dtype": "DT_FLOAT"}}, "dtype": {"type": "DT_FLOAT"}}}, {"op": "Const", "name": "bert/encoder/layer_21/attention/self/query/bias", "attr": {"value": {"tensor": {"tensorShape": {"dim": [{"size": "128"}]}, "dtype": "DT_FLOAT"}}, "dtype": {"type": "DT_FLOAT"}}}, {"op": "Const", "name": "bert/encoder/layer_21/attention/self/key/kernel", "attr": {"value": {"tensor": {"tensorShape": {"dim": [{"size": "128"}, {"size": "128"}]}, "dtype": "DT_FLOAT"}}, "dtype": {"type": "DT_FLOAT"}}}, {"op": "Const", "name": "bert/encoder/layer_21/attention/self/key/bias", "attr": {"value": {"tensor": {"tensorShape": {"dim": [{"size": "128"}]}, "dtype": "DT_FLOAT"}}, "dtype": {"type": "DT_FLOAT"}}}, {"op": "Const", "name": "bert/encoder/layer_21/bottleneck/attention/FakeLayerNorm/beta", "attr": {"value": {"tensor": {"tensorShape": {"dim": [{"size": "128"}]}, "dtype": "DT_FLOAT"}}, "dtype": {"type": "DT_FLOAT"}}}, {"op": "Const", "name": "bert/encoder/layer_21/bottleneck/attention/FakeLayerNorm/gamma", "attr": {"value": {"tensor": {"tensorShape": {"dim": [{"size": "128"}]}, "dtype": "DT_FLOAT"}}, "dtype": {"type": "DT_FLOAT"}}}, {"op": "Const", "name": "bert/encoder/layer_21/bottleneck/attention/dense/kernel", "attr": {"value": {"tensor": {"tensorShape": {"dim": [{"size": "512"}, {"size": "128"}]}, "dtype": "DT_FLOAT"}}, "dtype": {"type": "DT_FLOAT"}}}, {"op": "Const", "name": "bert/encoder/layer_21/bottleneck/attention/dense/bias", "attr": {"value": {"tensor": {"tensorShape": {"dim": [{"size": "128"}]}, "dtype": "DT_FLOAT"}}, "dtype": {"type": "DT_FLOAT"}}}, {"op": "Const", "name": "bert/encoder/layer_21/attention/self/value/kernel", "attr": {"value": {"tensor": {"tensorShape": {"dim": [{"size": "128"}, {"size": "128"}]}, "dtype": "DT_FLOAT"}}, "dtype": {"type": "DT_FLOAT"}}}, {"op": "Const", "name": "bert/encoder/layer_21/attention/self/value/bias", "attr": {"value": {"tensor": {"tensorShape": {"dim": [{"size": "128"}]}, "dtype": "DT_FLOAT"}}, "dtype": {"type": "DT_FLOAT"}}}, {"op": "Const", "name": "bert/encoder/layer_21/bottleneck/value/FakeLayerNorm/beta", "attr": {"value": {"tensor": {"tensorShape": {"dim": [{"size": "128"}]}, "dtype": "DT_FLOAT"}}, "dtype": {"type": "DT_FLOAT"}}}, {"op": "Const", "name": "bert/encoder/layer_21/bottleneck/value/FakeLayerNorm/gamma", "attr": {"value": {"tensor": {"tensorShape": {"dim": [{"size": "128"}]}, "dtype": "DT_FLOAT"}}, "dtype": {"type": "DT_FLOAT"}}}, {"op": "Const", "name": "bert/encoder/layer_21/bottleneck/value/dense/kernel", "attr": {"value": {"tensor": {"tensorShape": {"dim": [{"size": "512"}, {"size": "128"}]}, "dtype": "DT_FLOAT"}}, "dtype": {"type": "DT_FLOAT"}}}, {"op": "Const", "name": "bert/encoder/layer_21/bottleneck/value/dense/bias", "attr": {"value": {"tensor": {"tensorShape": {"dim": [{"size": "128"}]}, "dtype": "DT_FLOAT"}}, "dtype": {"type": "DT_FLOAT"}}}, {"op": "Const", "name": "bert/encoder/layer_21/attention/output/dense/bias", "attr": {"value": {"tensor": {"tensorShape": {"dim": [{"size": "128"}]}, "dtype": "DT_FLOAT"}}, "dtype": {"type": "DT_FLOAT"}}}, {"op": "Const", "name": "bert/encoder/layer_21/bottleneck/input/FakeLayerNorm/gamma", "attr": {"value": {"tensor": {"tensorShape": {"dim": [{"size": "128"}]}, "dtype": "DT_FLOAT"}}, "dtype": {"type": "DT_FLOAT"}}}, {"op": "Const", "name": "bert/encoder/layer_21/bottleneck/input/dense/kernel", "attr": {"value": {"tensor": {"tensorShape": {"dim": [{"size": "512"}, {"size": "128"}]}, "dtype": "DT_FLOAT"}}, "dtype": {"type": "DT_FLOAT"}}}, {"op": "Const", "name": "bert/encoder/layer_21/bottleneck/input/dense/bias", "attr": {"value": {"tensor": {"tensorShape": {"dim": [{"size": "128"}]}, "dtype": "DT_FLOAT"}}, "dtype": {"type": "DT_FLOAT"}}}, {"op": "Const", "name": "bert/encoder/layer_20/output/bottleneck/FakeLayerNorm/beta", "attr": {"value": {"tensor": {"tensorShape": {"dim": [{"size": "512"}]}, "dtype": "DT_FLOAT"}}, "dtype": {"type": "DT_FLOAT"}}}, {"op": "Const", "name": "bert/encoder/layer_20/output/bottleneck/FakeLayerNorm/gamma", "attr": {"value": {"tensor": {"tensorShape": {"dim": [{"size": "512"}]}, "dtype": "DT_FLOAT"}}, "dtype": {"type": "DT_FLOAT"}}}, {"op": "Const", "name": "bert/encoder/layer_20/output/bottleneck/dense/kernel", "attr": {"value": {"tensor": {"tensorShape": {"dim": [{"size": "128"}, {"size": "512"}]}, "dtype": "DT_FLOAT"}}, "dtype": {"type": "DT_FLOAT"}}}, {"op": "Const", "name": "bert/encoder/layer_20/output/bottleneck/dense/bias", "attr": {"value": {"tensor": {"tensorShape": {"dim": [{"size": "512"}]}, "dtype": "DT_FLOAT"}}, "dtype": {"type": "DT_FLOAT"}}}, {"op": "Const", "name": "bert/encoder/layer_20/output/FakeLayerNorm/beta", "attr": {"value": {"tensor": {"tensorShape": {"dim": [{"size": "128"}]}, "dtype": "DT_FLOAT"}}, "dtype": {"type": "DT_FLOAT"}}}, {"op": "Const", "name": "bert/encoder/layer_20/output/FakeLayerNorm/gamma", "attr": {"value": {"tensor": {"tensorShape": {"dim": [{"size": "128"}]}, "dtype": "DT_FLOAT"}}, "dtype": {"type": "DT_FLOAT"}}}, {"op": "Const", "name": "bert/encoder/layer_20/output/dense/kernel", "attr": {"value": {"tensor": {"tensorShape": {"dim": [{"size": "512"}, {"size": "128"}]}, "dtype": "DT_FLOAT"}}, "dtype": {"type": "DT_FLOAT"}}}, {"op": "Const", "name": "bert/encoder/layer_20/output/dense/bias", "attr": {"value": {"tensor": {"tensorShape": {"dim": [{"size": "128"}]}, "dtype": "DT_FLOAT"}}, "dtype": {"type": "DT_FLOAT"}}}, {"op": "Const", "name": "bert/encoder/layer_20/intermediate/dense/kernel", "attr": {"value": {"tensor": {"tensorShape": {"dim": [{"size": "128"}, {"size": "512"}]}, "dtype": "DT_FLOAT"}}, "dtype": {"type": "DT_FLOAT"}}}, {"op": "Const", "name": "bert/encoder/layer_20/intermediate/dense/bias", "attr": {"value": {"tensor": {"tensorShape": {"dim": [{"size": "512"}]}, "dtype": "DT_FLOAT"}}, "dtype": {"type": "DT_FLOAT"}}}, {"op": "Const", "name": "bert/encoder/layer_20/ffn_layer_2/output/FakeLayerNorm/beta", "attr": {"value": {"tensor": {"tensorShape": {"dim": [{"size": "128"}]}, "dtype": "DT_FLOAT"}}, "dtype": {"type": "DT_FLOAT"}}}, {"op": "Const", "name": "bert/encoder/layer_20/ffn_layer_2/output/FakeLayerNorm/gamma", "attr": {"value": {"tensor": {"tensorShape": {"dim": [{"size": "128"}]}, "dtype": "DT_FLOAT"}}, "dtype": {"type": "DT_FLOAT"}}}, {"op": "Const", "name": "bert/encoder/layer_20/ffn_layer_2/output/dense/kernel", "attr": {"value": {"tensor": {"tensorShape": {"dim": [{"size": "512"}, {"size": "128"}]}, "dtype": "DT_FLOAT"}}, "dtype": {"type": "DT_FLOAT"}}}, {"op": "Const", "name": "bert/encoder/layer_20/ffn_layer_2/output/dense/bias", "attr": {"value": {"tensor": {"tensorShape": {"dim": [{"size": "128"}]}, "dtype": "DT_FLOAT"}}, "dtype": {"type": "DT_FLOAT"}}}, {"op": "Const", "name": "bert/encoder/layer_20/ffn_layer_2/intermediate/dense/kernel", "attr": {"value": {"tensor": {"tensorShape": {"dim": [{"size": "128"}, {"size": "512"}]}, "dtype": "DT_FLOAT"}}, "dtype": {"type": "DT_FLOAT"}}}, {"op": "Const", "name": "bert/encoder/layer_20/ffn_layer_2/intermediate/dense/bias", "attr": {"value": {"tensor": {"tensorShape": {"dim": [{"size": "512"}]}, "dtype": "DT_FLOAT"}}, "dtype": {"type": "DT_FLOAT"}}}, {"op": "Const", "name": "bert/encoder/layer_20/ffn_layer_1/output/FakeLayerNorm/beta", "attr": {"value": {"tensor": {"tensorShape": {"dim": [{"size": "128"}]}, "dtype": "DT_FLOAT"}}, "dtype": {"type": "DT_FLOAT"}}}, {"op": "Const", "name": "bert/encoder/layer_20/ffn_layer_1/output/FakeLayerNorm/gamma", "attr": {"value": {"tensor": {"tensorShape": {"dim": [{"size": "128"}]}, "dtype": "DT_FLOAT"}}, "dtype": {"type": "DT_FLOAT"}}}, {"op": "Const", "name": "bert/encoder/layer_20/ffn_layer_1/output/dense/kernel", "attr": {"value": {"tensor": {"tensorShape": {"dim": [{"size": "512"}, {"size": "128"}]}, "dtype": "DT_FLOAT"}}, "dtype": {"type": "DT_FLOAT"}}}, {"op": "Const", "name": "bert/encoder/layer_20/ffn_layer_1/output/dense/bias", "attr": {"value": {"tensor": {"tensorShape": {"dim": [{"size": "128"}]}, "dtype": "DT_FLOAT"}}, "dtype": {"type": "DT_FLOAT"}}}, {"op": "Const", "name": "bert/encoder/layer_20/ffn_layer_1/intermediate/dense/kernel", "attr": {"value": {"tensor": {"tensorShape": {"dim": [{"size": "128"}, {"size": "512"}]}, "dtype": "DT_FLOAT"}}, "dtype": {"type": "DT_FLOAT"}}}, {"op": "Const", "name": "bert/encoder/layer_20/ffn_layer_1/intermediate/dense/bias", "attr": {"value": {"tensor": {"tensorShape": {"dim": [{"size": "512"}]}, "dtype": "DT_FLOAT"}}, "dtype": {"type": "DT_FLOAT"}}}, {"op": "Const", "name": "bert/encoder/layer_20/ffn_layer_0/output/FakeLayerNorm/beta", "attr": {"value": {"tensor": {"tensorShape": {"dim": [{"size": "128"}]}, "dtype": "DT_FLOAT"}}, "dtype": {"type": "DT_FLOAT"}}}, {"op": "Const", "name": "bert/encoder/layer_20/ffn_layer_0/output/FakeLayerNorm/gamma", "attr": {"value": {"tensor": {"tensorShape": {"dim": [{"size": "128"}]}, "dtype": "DT_FLOAT"}}, "dtype": {"type": "DT_FLOAT"}}}, {"op": "Const", "name": "bert/encoder/layer_20/ffn_layer_0/output/dense/kernel", "attr": {"value": {"tensor": {"tensorShape": {"dim": [{"size": "512"}, {"size": "128"}]}, "dtype": "DT_FLOAT"}}, "dtype": {"type": "DT_FLOAT"}}}, {"op": "Const", "name": "bert/encoder/layer_20/ffn_layer_0/output/dense/bias", "attr": {"value": {"tensor": {"tensorShape": {"dim": [{"size": "128"}]}, "dtype": "DT_FLOAT"}}, "dtype": {"type": "DT_FLOAT"}}}, {"op": "Const", "name": "bert/encoder/layer_20/ffn_layer_0/intermediate/dense/kernel", "attr": {"value": {"tensor": {"tensorShape": {"dim": [{"size": "128"}, {"size": "512"}]}, "dtype": "DT_FLOAT"}}, "dtype": {"type": "DT_FLOAT"}}}, {"op": "Const", "name": "bert/encoder/layer_20/ffn_layer_0/intermediate/dense/bias", "attr": {"value": {"tensor": {"tensorShape": {"dim": [{"size": "512"}]}, "dtype": "DT_FLOAT"}}, "dtype": {"type": "DT_FLOAT"}}}, {"op": "Const", "name": "bert/encoder/layer_20/attention/output/FakeLayerNorm/beta", "attr": {"value": {"tensor": {"tensorShape": {"dim": [{"size": "128"}]}, "dtype": "DT_FLOAT"}}, "dtype": {"type": "DT_FLOAT"}}}, {"op": "Const", "name": "bert/encoder/layer_20/attention/output/FakeLayerNorm/gamma", "attr": {"value": {"tensor": {"tensorShape": {"dim": [{"size": "128"}]}, "dtype": "DT_FLOAT"}}, "dtype": {"type": "DT_FLOAT"}}}, {"op": "Const", "name": "bert/encoder/layer_20/attention/output/dense/kernel", "attr": {"value": {"tensor": {"tensorShape": {"dim": [{"size": "128"}, {"size": "128"}]}, "dtype": "DT_FLOAT"}}, "dtype": {"type": "DT_FLOAT"}}}, {"op": "Const", "name": "bert/encoder/layer_20/attention/self/query/kernel", "attr": {"value": {"tensor": {"tensorShape": {"dim": [{"size": "128"}, {"size": "128"}]}, "dtype": "DT_FLOAT"}}, "dtype": {"type": "DT_FLOAT"}}}, {"op": "Const", "name": "bert/encoder/layer_20/attention/self/query/bias", "attr": {"value": {"tensor": {"tensorShape": {"dim": [{"size": "128"}]}, "dtype": "DT_FLOAT"}}, "dtype": {"type": "DT_FLOAT"}}}, {"op": "Const", "name": "bert/encoder/layer_20/attention/self/key/kernel", "attr": {"value": {"tensor": {"tensorShape": {"dim": [{"size": "128"}, {"size": "128"}]}, "dtype": "DT_FLOAT"}}, "dtype": {"type": "DT_FLOAT"}}}, {"op": "Const", "name": "bert/encoder/layer_20/attention/self/key/bias", "attr": {"value": {"tensor": {"tensorShape": {"dim": [{"size": "128"}]}, "dtype": "DT_FLOAT"}}, "dtype": {"type": "DT_FLOAT"}}}, {"op": "Const", "name": "bert/encoder/layer_20/bottleneck/attention/FakeLayerNorm/beta", "attr": {"value": {"tensor": {"tensorShape": {"dim": [{"size": "128"}]}, "dtype": "DT_FLOAT"}}, "dtype": {"type": "DT_FLOAT"}}}, {"op": "Const", "name": "bert/encoder/layer_20/bottleneck/attention/FakeLayerNorm/gamma", "attr": {"value": {"tensor": {"tensorShape": {"dim": [{"size": "128"}]}, "dtype": "DT_FLOAT"}}, "dtype": {"type": "DT_FLOAT"}}}, {"op": "Const", "name": "bert/encoder/layer_20/bottleneck/attention/dense/kernel", "attr": {"value": {"tensor": {"tensorShape": {"dim": [{"size": "512"}, {"size": "128"}]}, "dtype": "DT_FLOAT"}}, "dtype": {"type": "DT_FLOAT"}}}, {"op": "Const", "name": "bert/encoder/layer_20/bottleneck/attention/dense/bias", "attr": {"value": {"tensor": {"tensorShape": {"dim": [{"size": "128"}]}, "dtype": "DT_FLOAT"}}, "dtype": {"type": "DT_FLOAT"}}}, {"op": "Const", "name": "bert/encoder/layer_20/attention/self/value/kernel", "attr": {"value": {"tensor": {"tensorShape": {"dim": [{"size": "128"}, {"size": "128"}]}, "dtype": "DT_FLOAT"}}, "dtype": {"type": "DT_FLOAT"}}}, {"op": "Const", "name": "bert/encoder/layer_20/attention/self/value/bias", "attr": {"value": {"tensor": {"tensorShape": {"dim": [{"size": "128"}]}, "dtype": "DT_FLOAT"}}, "dtype": {"type": "DT_FLOAT"}}}, {"op": "Const", "name": "bert/encoder/layer_20/bottleneck/value/FakeLayerNorm/beta", "attr": {"value": {"tensor": {"tensorShape": {"dim": [{"size": "128"}]}, "dtype": "DT_FLOAT"}}, "dtype": {"type": "DT_FLOAT"}}}, {"op": "Const", "name": "bert/encoder/layer_20/bottleneck/value/FakeLayerNorm/gamma", "attr": {"value": {"tensor": {"tensorShape": {"dim": [{"size": "128"}]}, "dtype": "DT_FLOAT"}}, "dtype": {"type": "DT_FLOAT"}}}, {"op": "Const", "name": "bert/encoder/layer_20/bottleneck/value/dense/kernel", "attr": {"value": {"tensor": {"tensorShape": {"dim": [{"size": "512"}, {"size": "128"}]}, "dtype": "DT_FLOAT"}}, "dtype": {"type": "DT_FLOAT"}}}, {"op": "Const", "name": "bert/encoder/layer_20/bottleneck/value/dense/bias", "attr": {"value": {"tensor": {"tensorShape": {"dim": [{"size": "128"}]}, "dtype": "DT_FLOAT"}}, "dtype": {"type": "DT_FLOAT"}}}, {"op": "Const", "name": "bert/encoder/layer_20/attention/output/dense/bias", "attr": {"value": {"tensor": {"tensorShape": {"dim": [{"size": "128"}]}, "dtype": "DT_FLOAT"}}, "dtype": {"type": "DT_FLOAT"}}}, {"op": "Const", "name": "bert/encoder/layer_20/bottleneck/input/FakeLayerNorm/gamma", "attr": {"value": {"tensor": {"tensorShape": {"dim": [{"size": "128"}]}, "dtype": "DT_FLOAT"}}, "dtype": {"type": "DT_FLOAT"}}}, {"op": "Const", "name": "bert/encoder/layer_20/bottleneck/input/dense/kernel", "attr": {"value": {"tensor": {"tensorShape": {"dim": [{"size": "512"}, {"size": "128"}]}, "dtype": "DT_FLOAT"}}, "dtype": {"type": "DT_FLOAT"}}}, {"op": "Const", "name": "bert/encoder/layer_20/bottleneck/input/dense/bias", "attr": {"value": {"tensor": {"tensorShape": {"dim": [{"size": "128"}]}, "dtype": "DT_FLOAT"}}, "dtype": {"type": "DT_FLOAT"}}}, {"op": "Const", "name": "bert/encoder/layer_19/output/bottleneck/FakeLayerNorm/beta", "attr": {"value": {"tensor": {"tensorShape": {"dim": [{"size": "512"}]}, "dtype": "DT_FLOAT"}}, "dtype": {"type": "DT_FLOAT"}}}, {"op": "Const", "name": "bert/encoder/layer_19/output/bottleneck/FakeLayerNorm/gamma", "attr": {"value": {"tensor": {"tensorShape": {"dim": [{"size": "512"}]}, "dtype": "DT_FLOAT"}}, "dtype": {"type": "DT_FLOAT"}}}, {"op": "Const", "name": "bert/encoder/layer_19/output/bottleneck/dense/kernel", "attr": {"value": {"tensor": {"tensorShape": {"dim": [{"size": "128"}, {"size": "512"}]}, "dtype": "DT_FLOAT"}}, "dtype": {"type": "DT_FLOAT"}}}, {"op": "Const", "name": "bert/encoder/layer_19/output/bottleneck/dense/bias", "attr": {"value": {"tensor": {"tensorShape": {"dim": [{"size": "512"}]}, "dtype": "DT_FLOAT"}}, "dtype": {"type": "DT_FLOAT"}}}, {"op": "Const", "name": "bert/encoder/layer_19/output/FakeLayerNorm/beta", "attr": {"value": {"tensor": {"tensorShape": {"dim": [{"size": "128"}]}, "dtype": "DT_FLOAT"}}, "dtype": {"type": "DT_FLOAT"}}}, {"op": "Const", "name": "bert/encoder/layer_19/output/FakeLayerNorm/gamma", "attr": {"value": {"tensor": {"tensorShape": {"dim": [{"size": "128"}]}, "dtype": "DT_FLOAT"}}, "dtype": {"type": "DT_FLOAT"}}}, {"op": "Const", "name": "bert/encoder/layer_19/output/dense/kernel", "attr": {"value": {"tensor": {"tensorShape": {"dim": [{"size": "512"}, {"size": "128"}]}, "dtype": "DT_FLOAT"}}, "dtype": {"type": "DT_FLOAT"}}}, {"op": "Const", "name": "bert/encoder/layer_19/output/dense/bias", "attr": {"value": {"tensor": {"tensorShape": {"dim": [{"size": "128"}]}, "dtype": "DT_FLOAT"}}, "dtype": {"type": "DT_FLOAT"}}}, {"op": "Const", "name": "bert/encoder/layer_19/intermediate/dense/kernel", "attr": {"value": {"tensor": {"tensorShape": {"dim": [{"size": "128"}, {"size": "512"}]}, "dtype": "DT_FLOAT"}}, "dtype": {"type": "DT_FLOAT"}}}, {"op": "Const", "name": "bert/encoder/layer_19/intermediate/dense/bias", "attr": {"value": {"tensor": {"tensorShape": {"dim": [{"size": "512"}]}, "dtype": "DT_FLOAT"}}, "dtype": {"type": "DT_FLOAT"}}}, {"op": "Const", "name": "bert/encoder/layer_19/ffn_layer_2/output/FakeLayerNorm/beta", "attr": {"value": {"tensor": {"tensorShape": {"dim": [{"size": "128"}]}, "dtype": "DT_FLOAT"}}, "dtype": {"type": "DT_FLOAT"}}}, {"op": "Const", "name": "bert/encoder/layer_19/ffn_layer_2/output/FakeLayerNorm/gamma", "attr": {"value": {"tensor": {"tensorShape": {"dim": [{"size": "128"}]}, "dtype": "DT_FLOAT"}}, "dtype": {"type": "DT_FLOAT"}}}, {"op": "Const", "name": "bert/encoder/layer_19/ffn_layer_2/output/dense/kernel", "attr": {"value": {"tensor": {"tensorShape": {"dim": [{"size": "512"}, {"size": "128"}]}, "dtype": "DT_FLOAT"}}, "dtype": {"type": "DT_FLOAT"}}}, {"op": "Const", "name": "bert/encoder/layer_19/ffn_layer_2/output/dense/bias", "attr": {"value": {"tensor": {"tensorShape": {"dim": [{"size": "128"}]}, "dtype": "DT_FLOAT"}}, "dtype": {"type": "DT_FLOAT"}}}, {"op": "Const", "name": "bert/encoder/layer_19/ffn_layer_2/intermediate/dense/kernel", "attr": {"value": {"tensor": {"tensorShape": {"dim": [{"size": "128"}, {"size": "512"}]}, "dtype": "DT_FLOAT"}}, "dtype": {"type": "DT_FLOAT"}}}, {"op": "Const", "name": "bert/encoder/layer_19/ffn_layer_2/intermediate/dense/bias", "attr": {"value": {"tensor": {"tensorShape": {"dim": [{"size": "512"}]}, "dtype": "DT_FLOAT"}}, "dtype": {"type": "DT_FLOAT"}}}, {"op": "Const", "name": "bert/encoder/layer_19/ffn_layer_1/output/FakeLayerNorm/beta", "attr": {"value": {"tensor": {"tensorShape": {"dim": [{"size": "128"}]}, "dtype": "DT_FLOAT"}}, "dtype": {"type": "DT_FLOAT"}}}, {"op": "Const", "name": "bert/encoder/layer_19/ffn_layer_1/output/FakeLayerNorm/gamma", "attr": {"value": {"tensor": {"tensorShape": {"dim": [{"size": "128"}]}, "dtype": "DT_FLOAT"}}, "dtype": {"type": "DT_FLOAT"}}}, {"op": "Const", "name": "bert/encoder/layer_19/ffn_layer_1/output/dense/kernel", "attr": {"value": {"tensor": {"tensorShape": {"dim": [{"size": "512"}, {"size": "128"}]}, "dtype": "DT_FLOAT"}}, "dtype": {"type": "DT_FLOAT"}}}, {"op": "Const", "name": "bert/encoder/layer_19/ffn_layer_1/output/dense/bias", "attr": {"value": {"tensor": {"tensorShape": {"dim": [{"size": "128"}]}, "dtype": "DT_FLOAT"}}, "dtype": {"type": "DT_FLOAT"}}}, {"op": "Const", "name": "bert/encoder/layer_19/ffn_layer_1/intermediate/dense/kernel", "attr": {"value": {"tensor": {"tensorShape": {"dim": [{"size": "128"}, {"size": "512"}]}, "dtype": "DT_FLOAT"}}, "dtype": {"type": "DT_FLOAT"}}}, {"op": "Const", "name": "bert/encoder/layer_19/ffn_layer_1/intermediate/dense/bias", "attr": {"value": {"tensor": {"tensorShape": {"dim": [{"size": "512"}]}, "dtype": "DT_FLOAT"}}, "dtype": {"type": "DT_FLOAT"}}}, {"op": "Const", "name": "bert/encoder/layer_19/ffn_layer_0/output/FakeLayerNorm/beta", "attr": {"value": {"tensor": {"tensorShape": {"dim": [{"size": "128"}]}, "dtype": "DT_FLOAT"}}, "dtype": {"type": "DT_FLOAT"}}}, {"op": "Const", "name": "bert/encoder/layer_19/ffn_layer_0/output/FakeLayerNorm/gamma", "attr": {"value": {"tensor": {"tensorShape": {"dim": [{"size": "128"}]}, "dtype": "DT_FLOAT"}}, "dtype": {"type": "DT_FLOAT"}}}, {"op": "Const", "name": "bert/encoder/layer_19/ffn_layer_0/output/dense/kernel", "attr": {"value": {"tensor": {"tensorShape": {"dim": [{"size": "512"}, {"size": "128"}]}, "dtype": "DT_FLOAT"}}, "dtype": {"type": "DT_FLOAT"}}}, {"op": "Const", "name": "bert/encoder/layer_19/ffn_layer_0/output/dense/bias", "attr": {"value": {"tensor": {"tensorShape": {"dim": [{"size": "128"}]}, "dtype": "DT_FLOAT"}}, "dtype": {"type": "DT_FLOAT"}}}, {"op": "Const", "name": "bert/encoder/layer_19/ffn_layer_0/intermediate/dense/kernel", "attr": {"value": {"tensor": {"tensorShape": {"dim": [{"size": "128"}, {"size": "512"}]}, "dtype": "DT_FLOAT"}}, "dtype": {"type": "DT_FLOAT"}}}, {"op": "Const", "name": "bert/encoder/layer_19/ffn_layer_0/intermediate/dense/bias", "attr": {"value": {"tensor": {"tensorShape": {"dim": [{"size": "512"}]}, "dtype": "DT_FLOAT"}}, "dtype": {"type": "DT_FLOAT"}}}, {"op": "Const", "name": "bert/encoder/layer_19/attention/output/FakeLayerNorm/beta", "attr": {"value": {"tensor": {"tensorShape": {"dim": [{"size": "128"}]}, "dtype": "DT_FLOAT"}}, "dtype": {"type": "DT_FLOAT"}}}, {"op": "Const", "name": "bert/encoder/layer_19/attention/output/FakeLayerNorm/gamma", "attr": {"value": {"tensor": {"tensorShape": {"dim": [{"size": "128"}]}, "dtype": "DT_FLOAT"}}, "dtype": {"type": "DT_FLOAT"}}}, {"op": "Const", "name": "bert/encoder/layer_19/attention/output/dense/kernel", "attr": {"value": {"tensor": {"tensorShape": {"dim": [{"size": "128"}, {"size": "128"}]}, "dtype": "DT_FLOAT"}}, "dtype": {"type": "DT_FLOAT"}}}, {"op": "Const", "name": "bert/encoder/layer_19/attention/self/query/kernel", "attr": {"value": {"tensor": {"tensorShape": {"dim": [{"size": "128"}, {"size": "128"}]}, "dtype": "DT_FLOAT"}}, "dtype": {"type": "DT_FLOAT"}}}, {"op": "Const", "name": "bert/encoder/layer_19/attention/self/query/bias", "attr": {"value": {"tensor": {"tensorShape": {"dim": [{"size": "128"}]}, "dtype": "DT_FLOAT"}}, "dtype": {"type": "DT_FLOAT"}}}, {"op": "Const", "name": "bert/encoder/layer_19/attention/self/key/kernel", "attr": {"value": {"tensor": {"tensorShape": {"dim": [{"size": "128"}, {"size": "128"}]}, "dtype": "DT_FLOAT"}}, "dtype": {"type": "DT_FLOAT"}}}, {"op": "Const", "name": "bert/encoder/layer_19/attention/self/key/bias", "attr": {"value": {"tensor": {"tensorShape": {"dim": [{"size": "128"}]}, "dtype": "DT_FLOAT"}}, "dtype": {"type": "DT_FLOAT"}}}, {"op": "Const", "name": "bert/encoder/layer_19/bottleneck/attention/FakeLayerNorm/beta", "attr": {"value": {"tensor": {"tensorShape": {"dim": [{"size": "128"}]}, "dtype": "DT_FLOAT"}}, "dtype": {"type": "DT_FLOAT"}}}, {"op": "Const", "name": "bert/encoder/layer_19/bottleneck/attention/FakeLayerNorm/gamma", "attr": {"value": {"tensor": {"tensorShape": {"dim": [{"size": "128"}]}, "dtype": "DT_FLOAT"}}, "dtype": {"type": "DT_FLOAT"}}}, {"op": "Const", "name": "bert/encoder/layer_19/bottleneck/attention/dense/kernel", "attr": {"value": {"tensor": {"tensorShape": {"dim": [{"size": "512"}, {"size": "128"}]}, "dtype": "DT_FLOAT"}}, "dtype": {"type": "DT_FLOAT"}}}, {"op": "Const", "name": "bert/encoder/layer_19/bottleneck/attention/dense/bias", "attr": {"value": {"tensor": {"tensorShape": {"dim": [{"size": "128"}]}, "dtype": "DT_FLOAT"}}, "dtype": {"type": "DT_FLOAT"}}}, {"op": "Const", "name": "bert/encoder/layer_19/attention/self/value/kernel", "attr": {"value": {"tensor": {"tensorShape": {"dim": [{"size": "128"}, {"size": "128"}]}, "dtype": "DT_FLOAT"}}, "dtype": {"type": "DT_FLOAT"}}}, {"op": "Const", "name": "bert/encoder/layer_19/attention/self/value/bias", "attr": {"value": {"tensor": {"tensorShape": {"dim": [{"size": "128"}]}, "dtype": "DT_FLOAT"}}, "dtype": {"type": "DT_FLOAT"}}}, {"op": "Const", "name": "bert/encoder/layer_19/bottleneck/value/FakeLayerNorm/beta", "attr": {"value": {"tensor": {"tensorShape": {"dim": [{"size": "128"}]}, "dtype": "DT_FLOAT"}}, "dtype": {"type": "DT_FLOAT"}}}, {"op": "Const", "name": "bert/encoder/layer_19/bottleneck/value/FakeLayerNorm/gamma", "attr": {"value": {"tensor": {"tensorShape": {"dim": [{"size": "128"}]}, "dtype": "DT_FLOAT"}}, "dtype": {"type": "DT_FLOAT"}}}, {"op": "Const", "name": "bert/encoder/layer_19/bottleneck/value/dense/kernel", "attr": {"value": {"tensor": {"tensorShape": {"dim": [{"size": "512"}, {"size": "128"}]}, "dtype": "DT_FLOAT"}}, "dtype": {"type": "DT_FLOAT"}}}, {"op": "Const", "name": "bert/encoder/layer_19/bottleneck/value/dense/bias", "attr": {"value": {"tensor": {"tensorShape": {"dim": [{"size": "128"}]}, "dtype": "DT_FLOAT"}}, "dtype": {"type": "DT_FLOAT"}}}, {"op": "Const", "name": "bert/encoder/layer_19/attention/output/dense/bias", "attr": {"value": {"tensor": {"tensorShape": {"dim": [{"size": "128"}]}, "dtype": "DT_FLOAT"}}, "dtype": {"type": "DT_FLOAT"}}}, {"op": "Const", "name": "bert/encoder/layer_19/bottleneck/input/FakeLayerNorm/gamma", "attr": {"value": {"tensor": {"tensorShape": {"dim": [{"size": "128"}]}, "dtype": "DT_FLOAT"}}, "dtype": {"type": "DT_FLOAT"}}}, {"op": "Const", "name": "bert/encoder/layer_19/bottleneck/input/dense/kernel", "attr": {"value": {"tensor": {"tensorShape": {"dim": [{"size": "512"}, {"size": "128"}]}, "dtype": "DT_FLOAT"}}, "dtype": {"type": "DT_FLOAT"}}}, {"op": "Const", "name": "bert/encoder/layer_19/bottleneck/input/dense/bias", "attr": {"value": {"tensor": {"tensorShape": {"dim": [{"size": "128"}]}, "dtype": "DT_FLOAT"}}, "dtype": {"type": "DT_FLOAT"}}}, {"op": "Const", "name": "bert/encoder/layer_18/output/bottleneck/FakeLayerNorm/beta", "attr": {"value": {"tensor": {"tensorShape": {"dim": [{"size": "512"}]}, "dtype": "DT_FLOAT"}}, "dtype": {"type": "DT_FLOAT"}}}, {"op": "Const", "name": "bert/encoder/layer_18/output/bottleneck/FakeLayerNorm/gamma", "attr": {"value": {"tensor": {"tensorShape": {"dim": [{"size": "512"}]}, "dtype": "DT_FLOAT"}}, "dtype": {"type": "DT_FLOAT"}}}, {"op": "Const", "name": "bert/encoder/layer_18/output/bottleneck/dense/kernel", "attr": {"value": {"tensor": {"tensorShape": {"dim": [{"size": "128"}, {"size": "512"}]}, "dtype": "DT_FLOAT"}}, "dtype": {"type": "DT_FLOAT"}}}, {"op": "Const", "name": "bert/encoder/layer_18/output/bottleneck/dense/bias", "attr": {"value": {"tensor": {"tensorShape": {"dim": [{"size": "512"}]}, "dtype": "DT_FLOAT"}}, "dtype": {"type": "DT_FLOAT"}}}, {"op": "Const", "name": "bert/encoder/layer_18/output/FakeLayerNorm/beta", "attr": {"value": {"tensor": {"tensorShape": {"dim": [{"size": "128"}]}, "dtype": "DT_FLOAT"}}, "dtype": {"type": "DT_FLOAT"}}}, {"op": "Const", "name": "bert/encoder/layer_18/output/FakeLayerNorm/gamma", "attr": {"value": {"tensor": {"tensorShape": {"dim": [{"size": "128"}]}, "dtype": "DT_FLOAT"}}, "dtype": {"type": "DT_FLOAT"}}}, {"op": "Const", "name": "bert/encoder/layer_18/output/dense/kernel", "attr": {"value": {"tensor": {"tensorShape": {"dim": [{"size": "512"}, {"size": "128"}]}, "dtype": "DT_FLOAT"}}, "dtype": {"type": "DT_FLOAT"}}}, {"op": "Const", "name": "bert/encoder/layer_18/output/dense/bias", "attr": {"value": {"tensor": {"tensorShape": {"dim": [{"size": "128"}]}, "dtype": "DT_FLOAT"}}, "dtype": {"type": "DT_FLOAT"}}}, {"op": "Const", "name": "bert/encoder/layer_18/intermediate/dense/kernel", "attr": {"value": {"tensor": {"tensorShape": {"dim": [{"size": "128"}, {"size": "512"}]}, "dtype": "DT_FLOAT"}}, "dtype": {"type": "DT_FLOAT"}}}, {"op": "Const", "name": "bert/encoder/layer_18/intermediate/dense/bias", "attr": {"value": {"tensor": {"tensorShape": {"dim": [{"size": "512"}]}, "dtype": "DT_FLOAT"}}, "dtype": {"type": "DT_FLOAT"}}}, {"op": "Const", "name": "bert/encoder/layer_18/ffn_layer_2/output/FakeLayerNorm/beta", "attr": {"value": {"tensor": {"tensorShape": {"dim": [{"size": "128"}]}, "dtype": "DT_FLOAT"}}, "dtype": {"type": "DT_FLOAT"}}}, {"op": "Const", "name": "bert/encoder/layer_18/ffn_layer_2/output/FakeLayerNorm/gamma", "attr": {"value": {"tensor": {"tensorShape": {"dim": [{"size": "128"}]}, "dtype": "DT_FLOAT"}}, "dtype": {"type": "DT_FLOAT"}}}, {"op": "Const", "name": "bert/encoder/layer_18/ffn_layer_2/output/dense/kernel", "attr": {"value": {"tensor": {"tensorShape": {"dim": [{"size": "512"}, {"size": "128"}]}, "dtype": "DT_FLOAT"}}, "dtype": {"type": "DT_FLOAT"}}}, {"op": "Const", "name": "bert/encoder/layer_18/ffn_layer_2/output/dense/bias", "attr": {"value": {"tensor": {"tensorShape": {"dim": [{"size": "128"}]}, "dtype": "DT_FLOAT"}}, "dtype": {"type": "DT_FLOAT"}}}, {"op": "Const", "name": "bert/encoder/layer_18/ffn_layer_2/intermediate/dense/kernel", "attr": {"value": {"tensor": {"tensorShape": {"dim": [{"size": "128"}, {"size": "512"}]}, "dtype": "DT_FLOAT"}}, "dtype": {"type": "DT_FLOAT"}}}, {"op": "Const", "name": "bert/encoder/layer_18/ffn_layer_2/intermediate/dense/bias", "attr": {"value": {"tensor": {"tensorShape": {"dim": [{"size": "512"}]}, "dtype": "DT_FLOAT"}}, "dtype": {"type": "DT_FLOAT"}}}, {"op": "Const", "name": "bert/encoder/layer_18/ffn_layer_1/output/FakeLayerNorm/beta", "attr": {"value": {"tensor": {"tensorShape": {"dim": [{"size": "128"}]}, "dtype": "DT_FLOAT"}}, "dtype": {"type": "DT_FLOAT"}}}, {"op": "Const", "name": "bert/encoder/layer_18/ffn_layer_1/output/FakeLayerNorm/gamma", "attr": {"value": {"tensor": {"tensorShape": {"dim": [{"size": "128"}]}, "dtype": "DT_FLOAT"}}, "dtype": {"type": "DT_FLOAT"}}}, {"op": "Const", "name": "bert/encoder/layer_18/ffn_layer_1/output/dense/kernel", "attr": {"value": {"tensor": {"tensorShape": {"dim": [{"size": "512"}, {"size": "128"}]}, "dtype": "DT_FLOAT"}}, "dtype": {"type": "DT_FLOAT"}}}, {"op": "Const", "name": "bert/encoder/layer_18/ffn_layer_1/output/dense/bias", "attr": {"value": {"tensor": {"tensorShape": {"dim": [{"size": "128"}]}, "dtype": "DT_FLOAT"}}, "dtype": {"type": "DT_FLOAT"}}}, {"op": "Const", "name": "bert/encoder/layer_18/ffn_layer_1/intermediate/dense/kernel", "attr": {"value": {"tensor": {"tensorShape": {"dim": [{"size": "128"}, {"size": "512"}]}, "dtype": "DT_FLOAT"}}, "dtype": {"type": "DT_FLOAT"}}}, {"op": "Const", "name": "bert/encoder/layer_18/ffn_layer_1/intermediate/dense/bias", "attr": {"value": {"tensor": {"tensorShape": {"dim": [{"size": "512"}]}, "dtype": "DT_FLOAT"}}, "dtype": {"type": "DT_FLOAT"}}}, {"op": "Const", "name": "bert/encoder/layer_18/ffn_layer_0/output/FakeLayerNorm/beta", "attr": {"value": {"tensor": {"tensorShape": {"dim": [{"size": "128"}]}, "dtype": "DT_FLOAT"}}, "dtype": {"type": "DT_FLOAT"}}}, {"op": "Const", "name": "bert/encoder/layer_18/ffn_layer_0/output/FakeLayerNorm/gamma", "attr": {"value": {"tensor": {"tensorShape": {"dim": [{"size": "128"}]}, "dtype": "DT_FLOAT"}}, "dtype": {"type": "DT_FLOAT"}}}, {"op": "Const", "name": "bert/encoder/layer_18/ffn_layer_0/output/dense/kernel", "attr": {"value": {"tensor": {"tensorShape": {"dim": [{"size": "512"}, {"size": "128"}]}, "dtype": "DT_FLOAT"}}, "dtype": {"type": "DT_FLOAT"}}}, {"op": "Const", "name": "bert/encoder/layer_18/ffn_layer_0/output/dense/bias", "attr": {"value": {"tensor": {"tensorShape": {"dim": [{"size": "128"}]}, "dtype": "DT_FLOAT"}}, "dtype": {"type": "DT_FLOAT"}}}, {"op": "Const", "name": "bert/encoder/layer_18/ffn_layer_0/intermediate/dense/kernel", "attr": {"value": {"tensor": {"tensorShape": {"dim": [{"size": "128"}, {"size": "512"}]}, "dtype": "DT_FLOAT"}}, "dtype": {"type": "DT_FLOAT"}}}, {"op": "Const", "name": "bert/encoder/layer_18/ffn_layer_0/intermediate/dense/bias", "attr": {"value": {"tensor": {"tensorShape": {"dim": [{"size": "512"}]}, "dtype": "DT_FLOAT"}}, "dtype": {"type": "DT_FLOAT"}}}, {"op": "Const", "name": "bert/encoder/layer_18/attention/output/FakeLayerNorm/beta", "attr": {"value": {"tensor": {"tensorShape": {"dim": [{"size": "128"}]}, "dtype": "DT_FLOAT"}}, "dtype": {"type": "DT_FLOAT"}}}, {"op": "Const", "name": "bert/encoder/layer_18/attention/output/FakeLayerNorm/gamma", "attr": {"value": {"tensor": {"tensorShape": {"dim": [{"size": "128"}]}, "dtype": "DT_FLOAT"}}, "dtype": {"type": "DT_FLOAT"}}}, {"op": "Const", "name": "bert/encoder/layer_18/attention/output/dense/kernel", "attr": {"value": {"tensor": {"tensorShape": {"dim": [{"size": "128"}, {"size": "128"}]}, "dtype": "DT_FLOAT"}}, "dtype": {"type": "DT_FLOAT"}}}, {"op": "Const", "name": "bert/encoder/layer_18/attention/self/query/kernel", "attr": {"value": {"tensor": {"tensorShape": {"dim": [{"size": "128"}, {"size": "128"}]}, "dtype": "DT_FLOAT"}}, "dtype": {"type": "DT_FLOAT"}}}, {"op": "Const", "name": "bert/encoder/layer_18/attention/self/query/bias", "attr": {"value": {"tensor": {"tensorShape": {"dim": [{"size": "128"}]}, "dtype": "DT_FLOAT"}}, "dtype": {"type": "DT_FLOAT"}}}, {"op": "Const", "name": "bert/encoder/layer_18/attention/self/key/kernel", "attr": {"value": {"tensor": {"tensorShape": {"dim": [{"size": "128"}, {"size": "128"}]}, "dtype": "DT_FLOAT"}}, "dtype": {"type": "DT_FLOAT"}}}, {"op": "Const", "name": "bert/encoder/layer_18/attention/self/key/bias", "attr": {"value": {"tensor": {"tensorShape": {"dim": [{"size": "128"}]}, "dtype": "DT_FLOAT"}}, "dtype": {"type": "DT_FLOAT"}}}, {"op": "Const", "name": "bert/encoder/layer_18/bottleneck/attention/FakeLayerNorm/beta", "attr": {"value": {"tensor": {"tensorShape": {"dim": [{"size": "128"}]}, "dtype": "DT_FLOAT"}}, "dtype": {"type": "DT_FLOAT"}}}, {"op": "Const", "name": "bert/encoder/layer_18/bottleneck/attention/FakeLayerNorm/gamma", "attr": {"value": {"tensor": {"tensorShape": {"dim": [{"size": "128"}]}, "dtype": "DT_FLOAT"}}, "dtype": {"type": "DT_FLOAT"}}}, {"op": "Const", "name": "bert/encoder/layer_18/bottleneck/attention/dense/kernel", "attr": {"value": {"tensor": {"tensorShape": {"dim": [{"size": "512"}, {"size": "128"}]}, "dtype": "DT_FLOAT"}}, "dtype": {"type": "DT_FLOAT"}}}, {"op": "Const", "name": "bert/encoder/layer_18/bottleneck/attention/dense/bias", "attr": {"value": {"tensor": {"tensorShape": {"dim": [{"size": "128"}]}, "dtype": "DT_FLOAT"}}, "dtype": {"type": "DT_FLOAT"}}}, {"op": "Const", "name": "bert/encoder/layer_18/attention/self/value/kernel", "attr": {"value": {"tensor": {"tensorShape": {"dim": [{"size": "128"}, {"size": "128"}]}, "dtype": "DT_FLOAT"}}, "dtype": {"type": "DT_FLOAT"}}}, {"op": "Const", "name": "bert/encoder/layer_18/attention/self/value/bias", "attr": {"value": {"tensor": {"tensorShape": {"dim": [{"size": "128"}]}, "dtype": "DT_FLOAT"}}, "dtype": {"type": "DT_FLOAT"}}}, {"op": "Const", "name": "bert/encoder/layer_18/bottleneck/value/FakeLayerNorm/beta", "attr": {"value": {"tensor": {"tensorShape": {"dim": [{"size": "128"}]}, "dtype": "DT_FLOAT"}}, "dtype": {"type": "DT_FLOAT"}}}, {"op": "Const", "name": "bert/encoder/layer_18/bottleneck/value/FakeLayerNorm/gamma", "attr": {"value": {"tensor": {"tensorShape": {"dim": [{"size": "128"}]}, "dtype": "DT_FLOAT"}}, "dtype": {"type": "DT_FLOAT"}}}, {"op": "Const", "name": "bert/encoder/layer_18/bottleneck/value/dense/kernel", "attr": {"value": {"tensor": {"tensorShape": {"dim": [{"size": "512"}, {"size": "128"}]}, "dtype": "DT_FLOAT"}}, "dtype": {"type": "DT_FLOAT"}}}, {"op": "Const", "name": "bert/encoder/layer_18/bottleneck/value/dense/bias", "attr": {"value": {"tensor": {"tensorShape": {"dim": [{"size": "128"}]}, "dtype": "DT_FLOAT"}}, "dtype": {"type": "DT_FLOAT"}}}, {"op": "Const", "name": "bert/encoder/layer_18/attention/output/dense/bias", "attr": {"value": {"tensor": {"tensorShape": {"dim": [{"size": "128"}]}, "dtype": "DT_FLOAT"}}, "dtype": {"type": "DT_FLOAT"}}}, {"op": "Const", "name": "bert/encoder/layer_18/bottleneck/input/FakeLayerNorm/gamma", "attr": {"value": {"tensor": {"tensorShape": {"dim": [{"size": "128"}]}, "dtype": "DT_FLOAT"}}, "dtype": {"type": "DT_FLOAT"}}}, {"op": "Const", "name": "bert/encoder/layer_18/bottleneck/input/dense/kernel", "attr": {"value": {"tensor": {"tensorShape": {"dim": [{"size": "512"}, {"size": "128"}]}, "dtype": "DT_FLOAT"}}, "dtype": {"type": "DT_FLOAT"}}}, {"op": "Const", "name": "bert/encoder/layer_18/bottleneck/input/dense/bias", "attr": {"value": {"tensor": {"tensorShape": {"dim": [{"size": "128"}]}, "dtype": "DT_FLOAT"}}, "dtype": {"type": "DT_FLOAT"}}}, {"op": "Const", "name": "bert/encoder/layer_17/output/bottleneck/FakeLayerNorm/beta", "attr": {"value": {"tensor": {"tensorShape": {"dim": [{"size": "512"}]}, "dtype": "DT_FLOAT"}}, "dtype": {"type": "DT_FLOAT"}}}, {"op": "Const", "name": "bert/encoder/layer_17/output/bottleneck/FakeLayerNorm/gamma", "attr": {"value": {"tensor": {"tensorShape": {"dim": [{"size": "512"}]}, "dtype": "DT_FLOAT"}}, "dtype": {"type": "DT_FLOAT"}}}, {"op": "Const", "name": "bert/encoder/layer_17/output/bottleneck/dense/kernel", "attr": {"value": {"tensor": {"tensorShape": {"dim": [{"size": "128"}, {"size": "512"}]}, "dtype": "DT_FLOAT"}}, "dtype": {"type": "DT_FLOAT"}}}, {"op": "Const", "name": "bert/encoder/layer_17/output/bottleneck/dense/bias", "attr": {"value": {"tensor": {"tensorShape": {"dim": [{"size": "512"}]}, "dtype": "DT_FLOAT"}}, "dtype": {"type": "DT_FLOAT"}}}, {"op": "Const", "name": "bert/encoder/layer_17/output/FakeLayerNorm/beta", "attr": {"value": {"tensor": {"tensorShape": {"dim": [{"size": "128"}]}, "dtype": "DT_FLOAT"}}, "dtype": {"type": "DT_FLOAT"}}}, {"op": "Const", "name": "bert/encoder/layer_17/output/FakeLayerNorm/gamma", "attr": {"value": {"tensor": {"tensorShape": {"dim": [{"size": "128"}]}, "dtype": "DT_FLOAT"}}, "dtype": {"type": "DT_FLOAT"}}}, {"op": "Const", "name": "bert/encoder/layer_17/output/dense/kernel", "attr": {"value": {"tensor": {"tensorShape": {"dim": [{"size": "512"}, {"size": "128"}]}, "dtype": "DT_FLOAT"}}, "dtype": {"type": "DT_FLOAT"}}}, {"op": "Const", "name": "bert/encoder/layer_17/output/dense/bias", "attr": {"value": {"tensor": {"tensorShape": {"dim": [{"size": "128"}]}, "dtype": "DT_FLOAT"}}, "dtype": {"type": "DT_FLOAT"}}}, {"op": "Const", "name": "bert/encoder/layer_17/intermediate/dense/kernel", "attr": {"value": {"tensor": {"tensorShape": {"dim": [{"size": "128"}, {"size": "512"}]}, "dtype": "DT_FLOAT"}}, "dtype": {"type": "DT_FLOAT"}}}, {"op": "Const", "name": "bert/encoder/layer_17/intermediate/dense/bias", "attr": {"value": {"tensor": {"tensorShape": {"dim": [{"size": "512"}]}, "dtype": "DT_FLOAT"}}, "dtype": {"type": "DT_FLOAT"}}}, {"op": "Const", "name": "bert/encoder/layer_17/ffn_layer_2/output/FakeLayerNorm/beta", "attr": {"value": {"tensor": {"tensorShape": {"dim": [{"size": "128"}]}, "dtype": "DT_FLOAT"}}, "dtype": {"type": "DT_FLOAT"}}}, {"op": "Const", "name": "bert/encoder/layer_17/ffn_layer_2/output/FakeLayerNorm/gamma", "attr": {"value": {"tensor": {"tensorShape": {"dim": [{"size": "128"}]}, "dtype": "DT_FLOAT"}}, "dtype": {"type": "DT_FLOAT"}}}, {"op": "Const", "name": "bert/encoder/layer_17/ffn_layer_2/output/dense/kernel", "attr": {"value": {"tensor": {"tensorShape": {"dim": [{"size": "512"}, {"size": "128"}]}, "dtype": "DT_FLOAT"}}, "dtype": {"type": "DT_FLOAT"}}}, {"op": "Const", "name": "bert/encoder/layer_17/ffn_layer_2/output/dense/bias", "attr": {"value": {"tensor": {"tensorShape": {"dim": [{"size": "128"}]}, "dtype": "DT_FLOAT"}}, "dtype": {"type": "DT_FLOAT"}}}, {"op": "Const", "name": "bert/encoder/layer_17/ffn_layer_2/intermediate/dense/kernel", "attr": {"value": {"tensor": {"tensorShape": {"dim": [{"size": "128"}, {"size": "512"}]}, "dtype": "DT_FLOAT"}}, "dtype": {"type": "DT_FLOAT"}}}, {"op": "Const", "name": "bert/encoder/layer_17/ffn_layer_2/intermediate/dense/bias", "attr": {"value": {"tensor": {"tensorShape": {"dim": [{"size": "512"}]}, "dtype": "DT_FLOAT"}}, "dtype": {"type": "DT_FLOAT"}}}, {"op": "Const", "name": "bert/encoder/layer_17/ffn_layer_1/output/FakeLayerNorm/beta", "attr": {"value": {"tensor": {"tensorShape": {"dim": [{"size": "128"}]}, "dtype": "DT_FLOAT"}}, "dtype": {"type": "DT_FLOAT"}}}, {"op": "Const", "name": "bert/encoder/layer_17/ffn_layer_1/output/FakeLayerNorm/gamma", "attr": {"value": {"tensor": {"tensorShape": {"dim": [{"size": "128"}]}, "dtype": "DT_FLOAT"}}, "dtype": {"type": "DT_FLOAT"}}}, {"op": "Const", "name": "bert/encoder/layer_17/ffn_layer_1/output/dense/kernel", "attr": {"value": {"tensor": {"tensorShape": {"dim": [{"size": "512"}, {"size": "128"}]}, "dtype": "DT_FLOAT"}}, "dtype": {"type": "DT_FLOAT"}}}, {"op": "Const", "name": "bert/encoder/layer_17/ffn_layer_1/output/dense/bias", "attr": {"value": {"tensor": {"tensorShape": {"dim": [{"size": "128"}]}, "dtype": "DT_FLOAT"}}, "dtype": {"type": "DT_FLOAT"}}}, {"op": "Const", "name": "bert/encoder/layer_17/ffn_layer_1/intermediate/dense/kernel", "attr": {"value": {"tensor": {"tensorShape": {"dim": [{"size": "128"}, {"size": "512"}]}, "dtype": "DT_FLOAT"}}, "dtype": {"type": "DT_FLOAT"}}}, {"op": "Const", "name": "bert/encoder/layer_17/ffn_layer_1/intermediate/dense/bias", "attr": {"value": {"tensor": {"tensorShape": {"dim": [{"size": "512"}]}, "dtype": "DT_FLOAT"}}, "dtype": {"type": "DT_FLOAT"}}}, {"op": "Const", "name": "bert/encoder/layer_17/ffn_layer_0/output/FakeLayerNorm/beta", "attr": {"value": {"tensor": {"tensorShape": {"dim": [{"size": "128"}]}, "dtype": "DT_FLOAT"}}, "dtype": {"type": "DT_FLOAT"}}}, {"op": "Const", "name": "bert/encoder/layer_17/ffn_layer_0/output/FakeLayerNorm/gamma", "attr": {"value": {"tensor": {"tensorShape": {"dim": [{"size": "128"}]}, "dtype": "DT_FLOAT"}}, "dtype": {"type": "DT_FLOAT"}}}, {"op": "Const", "name": "bert/encoder/layer_17/ffn_layer_0/output/dense/kernel", "attr": {"value": {"tensor": {"tensorShape": {"dim": [{"size": "512"}, {"size": "128"}]}, "dtype": "DT_FLOAT"}}, "dtype": {"type": "DT_FLOAT"}}}, {"op": "Const", "name": "bert/encoder/layer_17/ffn_layer_0/output/dense/bias", "attr": {"value": {"tensor": {"tensorShape": {"dim": [{"size": "128"}]}, "dtype": "DT_FLOAT"}}, "dtype": {"type": "DT_FLOAT"}}}, {"op": "Const", "name": "bert/encoder/layer_17/ffn_layer_0/intermediate/dense/kernel", "attr": {"value": {"tensor": {"tensorShape": {"dim": [{"size": "128"}, {"size": "512"}]}, "dtype": "DT_FLOAT"}}, "dtype": {"type": "DT_FLOAT"}}}, {"op": "Const", "name": "bert/encoder/layer_17/ffn_layer_0/intermediate/dense/bias", "attr": {"value": {"tensor": {"tensorShape": {"dim": [{"size": "512"}]}, "dtype": "DT_FLOAT"}}, "dtype": {"type": "DT_FLOAT"}}}, {"op": "Const", "name": "bert/encoder/layer_17/attention/output/FakeLayerNorm/beta", "attr": {"value": {"tensor": {"tensorShape": {"dim": [{"size": "128"}]}, "dtype": "DT_FLOAT"}}, "dtype": {"type": "DT_FLOAT"}}}, {"op": "Const", "name": "bert/encoder/layer_17/attention/output/FakeLayerNorm/gamma", "attr": {"value": {"tensor": {"tensorShape": {"dim": [{"size": "128"}]}, "dtype": "DT_FLOAT"}}, "dtype": {"type": "DT_FLOAT"}}}, {"op": "Const", "name": "bert/encoder/layer_17/attention/output/dense/kernel", "attr": {"value": {"tensor": {"tensorShape": {"dim": [{"size": "128"}, {"size": "128"}]}, "dtype": "DT_FLOAT"}}, "dtype": {"type": "DT_FLOAT"}}}, {"op": "Const", "name": "bert/encoder/layer_17/attention/self/query/kernel", "attr": {"value": {"tensor": {"tensorShape": {"dim": [{"size": "128"}, {"size": "128"}]}, "dtype": "DT_FLOAT"}}, "dtype": {"type": "DT_FLOAT"}}}, {"op": "Const", "name": "bert/encoder/layer_17/attention/self/query/bias", "attr": {"value": {"tensor": {"tensorShape": {"dim": [{"size": "128"}]}, "dtype": "DT_FLOAT"}}, "dtype": {"type": "DT_FLOAT"}}}, {"op": "Const", "name": "bert/encoder/layer_17/attention/self/key/kernel", "attr": {"value": {"tensor": {"tensorShape": {"dim": [{"size": "128"}, {"size": "128"}]}, "dtype": "DT_FLOAT"}}, "dtype": {"type": "DT_FLOAT"}}}, {"op": "Const", "name": "bert/encoder/layer_17/attention/self/key/bias", "attr": {"value": {"tensor": {"tensorShape": {"dim": [{"size": "128"}]}, "dtype": "DT_FLOAT"}}, "dtype": {"type": "DT_FLOAT"}}}, {"op": "Const", "name": "bert/encoder/layer_17/bottleneck/attention/FakeLayerNorm/beta", "attr": {"value": {"tensor": {"tensorShape": {"dim": [{"size": "128"}]}, "dtype": "DT_FLOAT"}}, "dtype": {"type": "DT_FLOAT"}}}, {"op": "Const", "name": "bert/encoder/layer_17/bottleneck/attention/FakeLayerNorm/gamma", "attr": {"value": {"tensor": {"tensorShape": {"dim": [{"size": "128"}]}, "dtype": "DT_FLOAT"}}, "dtype": {"type": "DT_FLOAT"}}}, {"op": "Const", "name": "bert/encoder/layer_17/bottleneck/attention/dense/kernel", "attr": {"value": {"tensor": {"tensorShape": {"dim": [{"size": "512"}, {"size": "128"}]}, "dtype": "DT_FLOAT"}}, "dtype": {"type": "DT_FLOAT"}}}, {"op": "Const", "name": "bert/encoder/layer_17/bottleneck/attention/dense/bias", "attr": {"value": {"tensor": {"tensorShape": {"dim": [{"size": "128"}]}, "dtype": "DT_FLOAT"}}, "dtype": {"type": "DT_FLOAT"}}}, {"op": "Const", "name": "bert/encoder/layer_17/attention/self/value/kernel", "attr": {"value": {"tensor": {"tensorShape": {"dim": [{"size": "128"}, {"size": "128"}]}, "dtype": "DT_FLOAT"}}, "dtype": {"type": "DT_FLOAT"}}}, {"op": "Const", "name": "bert/encoder/layer_17/attention/self/value/bias", "attr": {"value": {"tensor": {"tensorShape": {"dim": [{"size": "128"}]}, "dtype": "DT_FLOAT"}}, "dtype": {"type": "DT_FLOAT"}}}, {"op": "Const", "name": "bert/encoder/layer_17/bottleneck/value/FakeLayerNorm/beta", "attr": {"value": {"tensor": {"tensorShape": {"dim": [{"size": "128"}]}, "dtype": "DT_FLOAT"}}, "dtype": {"type": "DT_FLOAT"}}}, {"op": "Const", "name": "bert/encoder/layer_17/bottleneck/value/FakeLayerNorm/gamma", "attr": {"value": {"tensor": {"tensorShape": {"dim": [{"size": "128"}]}, "dtype": "DT_FLOAT"}}, "dtype": {"type": "DT_FLOAT"}}}, {"op": "Const", "name": "bert/encoder/layer_17/bottleneck/value/dense/kernel", "attr": {"value": {"tensor": {"tensorShape": {"dim": [{"size": "512"}, {"size": "128"}]}, "dtype": "DT_FLOAT"}}, "dtype": {"type": "DT_FLOAT"}}}, {"op": "Const", "name": "bert/encoder/layer_17/bottleneck/value/dense/bias", "attr": {"value": {"tensor": {"tensorShape": {"dim": [{"size": "128"}]}, "dtype": "DT_FLOAT"}}, "dtype": {"type": "DT_FLOAT"}}}, {"op": "Const", "name": "bert/encoder/layer_17/attention/output/dense/bias", "attr": {"value": {"tensor": {"tensorShape": {"dim": [{"size": "128"}]}, "dtype": "DT_FLOAT"}}, "dtype": {"type": "DT_FLOAT"}}}, {"op": "Const", "name": "bert/encoder/layer_17/bottleneck/input/FakeLayerNorm/gamma", "attr": {"value": {"tensor": {"tensorShape": {"dim": [{"size": "128"}]}, "dtype": "DT_FLOAT"}}, "dtype": {"type": "DT_FLOAT"}}}, {"op": "Const", "name": "bert/encoder/layer_17/bottleneck/input/dense/kernel", "attr": {"value": {"tensor": {"tensorShape": {"dim": [{"size": "512"}, {"size": "128"}]}, "dtype": "DT_FLOAT"}}, "dtype": {"type": "DT_FLOAT"}}}, {"op": "Const", "name": "bert/encoder/layer_17/bottleneck/input/dense/bias", "attr": {"value": {"tensor": {"tensorShape": {"dim": [{"size": "128"}]}, "dtype": "DT_FLOAT"}}, "dtype": {"type": "DT_FLOAT"}}}, {"op": "Const", "name": "bert/encoder/layer_16/output/bottleneck/FakeLayerNorm/beta", "attr": {"value": {"tensor": {"tensorShape": {"dim": [{"size": "512"}]}, "dtype": "DT_FLOAT"}}, "dtype": {"type": "DT_FLOAT"}}}, {"op": "Const", "name": "bert/encoder/layer_16/output/bottleneck/FakeLayerNorm/gamma", "attr": {"value": {"tensor": {"tensorShape": {"dim": [{"size": "512"}]}, "dtype": "DT_FLOAT"}}, "dtype": {"type": "DT_FLOAT"}}}, {"op": "Const", "name": "bert/encoder/layer_16/output/bottleneck/dense/kernel", "attr": {"value": {"tensor": {"tensorShape": {"dim": [{"size": "128"}, {"size": "512"}]}, "dtype": "DT_FLOAT"}}, "dtype": {"type": "DT_FLOAT"}}}, {"op": "Const", "name": "bert/encoder/layer_16/output/bottleneck/dense/bias", "attr": {"value": {"tensor": {"tensorShape": {"dim": [{"size": "512"}]}, "dtype": "DT_FLOAT"}}, "dtype": {"type": "DT_FLOAT"}}}, {"op": "Const", "name": "bert/encoder/layer_16/output/FakeLayerNorm/beta", "attr": {"value": {"tensor": {"tensorShape": {"dim": [{"size": "128"}]}, "dtype": "DT_FLOAT"}}, "dtype": {"type": "DT_FLOAT"}}}, {"op": "Const", "name": "bert/encoder/layer_16/output/FakeLayerNorm/gamma", "attr": {"value": {"tensor": {"tensorShape": {"dim": [{"size": "128"}]}, "dtype": "DT_FLOAT"}}, "dtype": {"type": "DT_FLOAT"}}}, {"op": "Const", "name": "bert/encoder/layer_16/output/dense/kernel", "attr": {"value": {"tensor": {"tensorShape": {"dim": [{"size": "512"}, {"size": "128"}]}, "dtype": "DT_FLOAT"}}, "dtype": {"type": "DT_FLOAT"}}}, {"op": "Const", "name": "bert/encoder/layer_16/output/dense/bias", "attr": {"value": {"tensor": {"tensorShape": {"dim": [{"size": "128"}]}, "dtype": "DT_FLOAT"}}, "dtype": {"type": "DT_FLOAT"}}}, {"op": "Const", "name": "bert/encoder/layer_16/intermediate/dense/kernel", "attr": {"value": {"tensor": {"tensorShape": {"dim": [{"size": "128"}, {"size": "512"}]}, "dtype": "DT_FLOAT"}}, "dtype": {"type": "DT_FLOAT"}}}, {"op": "Const", "name": "bert/encoder/layer_16/intermediate/dense/bias", "attr": {"value": {"tensor": {"tensorShape": {"dim": [{"size": "512"}]}, "dtype": "DT_FLOAT"}}, "dtype": {"type": "DT_FLOAT"}}}, {"op": "Const", "name": "bert/encoder/layer_16/ffn_layer_2/output/FakeLayerNorm/beta", "attr": {"value": {"tensor": {"tensorShape": {"dim": [{"size": "128"}]}, "dtype": "DT_FLOAT"}}, "dtype": {"type": "DT_FLOAT"}}}, {"op": "Const", "name": "bert/encoder/layer_16/ffn_layer_2/output/FakeLayerNorm/gamma", "attr": {"value": {"tensor": {"tensorShape": {"dim": [{"size": "128"}]}, "dtype": "DT_FLOAT"}}, "dtype": {"type": "DT_FLOAT"}}}, {"op": "Const", "name": "bert/encoder/layer_16/ffn_layer_2/output/dense/kernel", "attr": {"value": {"tensor": {"tensorShape": {"dim": [{"size": "512"}, {"size": "128"}]}, "dtype": "DT_FLOAT"}}, "dtype": {"type": "DT_FLOAT"}}}, {"op": "Const", "name": "bert/encoder/layer_16/ffn_layer_2/output/dense/bias", "attr": {"value": {"tensor": {"tensorShape": {"dim": [{"size": "128"}]}, "dtype": "DT_FLOAT"}}, "dtype": {"type": "DT_FLOAT"}}}, {"op": "Const", "name": "bert/encoder/layer_16/ffn_layer_2/intermediate/dense/kernel", "attr": {"value": {"tensor": {"tensorShape": {"dim": [{"size": "128"}, {"size": "512"}]}, "dtype": "DT_FLOAT"}}, "dtype": {"type": "DT_FLOAT"}}}, {"op": "Const", "name": "bert/encoder/layer_16/ffn_layer_2/intermediate/dense/bias", "attr": {"value": {"tensor": {"tensorShape": {"dim": [{"size": "512"}]}, "dtype": "DT_FLOAT"}}, "dtype": {"type": "DT_FLOAT"}}}, {"op": "Const", "name": "bert/encoder/layer_16/ffn_layer_1/output/FakeLayerNorm/beta", "attr": {"value": {"tensor": {"tensorShape": {"dim": [{"size": "128"}]}, "dtype": "DT_FLOAT"}}, "dtype": {"type": "DT_FLOAT"}}}, {"op": "Const", "name": "bert/encoder/layer_16/ffn_layer_1/output/FakeLayerNorm/gamma", "attr": {"value": {"tensor": {"tensorShape": {"dim": [{"size": "128"}]}, "dtype": "DT_FLOAT"}}, "dtype": {"type": "DT_FLOAT"}}}, {"op": "Const", "name": "bert/encoder/layer_16/ffn_layer_1/output/dense/kernel", "attr": {"value": {"tensor": {"tensorShape": {"dim": [{"size": "512"}, {"size": "128"}]}, "dtype": "DT_FLOAT"}}, "dtype": {"type": "DT_FLOAT"}}}, {"op": "Const", "name": "bert/encoder/layer_16/ffn_layer_1/output/dense/bias", "attr": {"value": {"tensor": {"tensorShape": {"dim": [{"size": "128"}]}, "dtype": "DT_FLOAT"}}, "dtype": {"type": "DT_FLOAT"}}}, {"op": "Const", "name": "bert/encoder/layer_16/ffn_layer_1/intermediate/dense/kernel", "attr": {"value": {"tensor": {"tensorShape": {"dim": [{"size": "128"}, {"size": "512"}]}, "dtype": "DT_FLOAT"}}, "dtype": {"type": "DT_FLOAT"}}}, {"op": "Const", "name": "bert/encoder/layer_16/ffn_layer_1/intermediate/dense/bias", "attr": {"value": {"tensor": {"tensorShape": {"dim": [{"size": "512"}]}, "dtype": "DT_FLOAT"}}, "dtype": {"type": "DT_FLOAT"}}}, {"op": "Const", "name": "bert/encoder/layer_16/ffn_layer_0/output/FakeLayerNorm/beta", "attr": {"value": {"tensor": {"tensorShape": {"dim": [{"size": "128"}]}, "dtype": "DT_FLOAT"}}, "dtype": {"type": "DT_FLOAT"}}}, {"op": "Const", "name": "bert/encoder/layer_16/ffn_layer_0/output/FakeLayerNorm/gamma", "attr": {"value": {"tensor": {"tensorShape": {"dim": [{"size": "128"}]}, "dtype": "DT_FLOAT"}}, "dtype": {"type": "DT_FLOAT"}}}, {"op": "Const", "name": "bert/encoder/layer_16/ffn_layer_0/output/dense/kernel", "attr": {"value": {"tensor": {"tensorShape": {"dim": [{"size": "512"}, {"size": "128"}]}, "dtype": "DT_FLOAT"}}, "dtype": {"type": "DT_FLOAT"}}}, {"op": "Const", "name": "bert/encoder/layer_16/ffn_layer_0/output/dense/bias", "attr": {"value": {"tensor": {"tensorShape": {"dim": [{"size": "128"}]}, "dtype": "DT_FLOAT"}}, "dtype": {"type": "DT_FLOAT"}}}, {"op": "Const", "name": "bert/encoder/layer_16/ffn_layer_0/intermediate/dense/kernel", "attr": {"value": {"tensor": {"tensorShape": {"dim": [{"size": "128"}, {"size": "512"}]}, "dtype": "DT_FLOAT"}}, "dtype": {"type": "DT_FLOAT"}}}, {"op": "Const", "name": "bert/encoder/layer_16/ffn_layer_0/intermediate/dense/bias", "attr": {"value": {"tensor": {"tensorShape": {"dim": [{"size": "512"}]}, "dtype": "DT_FLOAT"}}, "dtype": {"type": "DT_FLOAT"}}}, {"op": "Const", "name": "bert/encoder/layer_16/attention/output/FakeLayerNorm/beta", "attr": {"value": {"tensor": {"tensorShape": {"dim": [{"size": "128"}]}, "dtype": "DT_FLOAT"}}, "dtype": {"type": "DT_FLOAT"}}}, {"op": "Const", "name": "bert/encoder/layer_16/attention/output/FakeLayerNorm/gamma", "attr": {"value": {"tensor": {"tensorShape": {"dim": [{"size": "128"}]}, "dtype": "DT_FLOAT"}}, "dtype": {"type": "DT_FLOAT"}}}, {"op": "Const", "name": "bert/encoder/layer_16/attention/output/dense/kernel", "attr": {"value": {"tensor": {"tensorShape": {"dim": [{"size": "128"}, {"size": "128"}]}, "dtype": "DT_FLOAT"}}, "dtype": {"type": "DT_FLOAT"}}}, {"op": "Const", "name": "bert/encoder/layer_16/attention/self/query/kernel", "attr": {"value": {"tensor": {"tensorShape": {"dim": [{"size": "128"}, {"size": "128"}]}, "dtype": "DT_FLOAT"}}, "dtype": {"type": "DT_FLOAT"}}}, {"op": "Const", "name": "bert/encoder/layer_16/attention/self/query/bias", "attr": {"value": {"tensor": {"tensorShape": {"dim": [{"size": "128"}]}, "dtype": "DT_FLOAT"}}, "dtype": {"type": "DT_FLOAT"}}}, {"op": "Const", "name": "bert/encoder/layer_16/attention/self/key/kernel", "attr": {"value": {"tensor": {"tensorShape": {"dim": [{"size": "128"}, {"size": "128"}]}, "dtype": "DT_FLOAT"}}, "dtype": {"type": "DT_FLOAT"}}}, {"op": "Const", "name": "bert/encoder/layer_16/attention/self/key/bias", "attr": {"value": {"tensor": {"tensorShape": {"dim": [{"size": "128"}]}, "dtype": "DT_FLOAT"}}, "dtype": {"type": "DT_FLOAT"}}}, {"op": "Const", "name": "bert/encoder/layer_16/bottleneck/attention/FakeLayerNorm/beta", "attr": {"value": {"tensor": {"tensorShape": {"dim": [{"size": "128"}]}, "dtype": "DT_FLOAT"}}, "dtype": {"type": "DT_FLOAT"}}}, {"op": "Const", "name": "bert/encoder/layer_16/bottleneck/attention/FakeLayerNorm/gamma", "attr": {"value": {"tensor": {"tensorShape": {"dim": [{"size": "128"}]}, "dtype": "DT_FLOAT"}}, "dtype": {"type": "DT_FLOAT"}}}, {"op": "Const", "name": "bert/encoder/layer_16/bottleneck/attention/dense/kernel", "attr": {"value": {"tensor": {"tensorShape": {"dim": [{"size": "512"}, {"size": "128"}]}, "dtype": "DT_FLOAT"}}, "dtype": {"type": "DT_FLOAT"}}}, {"op": "Const", "name": "bert/encoder/layer_16/bottleneck/attention/dense/bias", "attr": {"value": {"tensor": {"tensorShape": {"dim": [{"size": "128"}]}, "dtype": "DT_FLOAT"}}, "dtype": {"type": "DT_FLOAT"}}}, {"op": "Const", "name": "bert/encoder/layer_16/attention/self/value/kernel", "attr": {"value": {"tensor": {"tensorShape": {"dim": [{"size": "128"}, {"size": "128"}]}, "dtype": "DT_FLOAT"}}, "dtype": {"type": "DT_FLOAT"}}}, {"op": "Const", "name": "bert/encoder/layer_16/attention/self/value/bias", "attr": {"value": {"tensor": {"tensorShape": {"dim": [{"size": "128"}]}, "dtype": "DT_FLOAT"}}, "dtype": {"type": "DT_FLOAT"}}}, {"op": "Const", "name": "bert/encoder/layer_16/bottleneck/value/FakeLayerNorm/beta", "attr": {"value": {"tensor": {"tensorShape": {"dim": [{"size": "128"}]}, "dtype": "DT_FLOAT"}}, "dtype": {"type": "DT_FLOAT"}}}, {"op": "Const", "name": "bert/encoder/layer_16/bottleneck/value/FakeLayerNorm/gamma", "attr": {"value": {"tensor": {"tensorShape": {"dim": [{"size": "128"}]}, "dtype": "DT_FLOAT"}}, "dtype": {"type": "DT_FLOAT"}}}, {"op": "Const", "name": "bert/encoder/layer_16/bottleneck/value/dense/kernel", "attr": {"value": {"tensor": {"tensorShape": {"dim": [{"size": "512"}, {"size": "128"}]}, "dtype": "DT_FLOAT"}}, "dtype": {"type": "DT_FLOAT"}}}, {"op": "Const", "name": "bert/encoder/layer_16/bottleneck/value/dense/bias", "attr": {"value": {"tensor": {"tensorShape": {"dim": [{"size": "128"}]}, "dtype": "DT_FLOAT"}}, "dtype": {"type": "DT_FLOAT"}}}, {"op": "Const", "name": "bert/encoder/layer_16/attention/output/dense/bias", "attr": {"value": {"tensor": {"tensorShape": {"dim": [{"size": "128"}]}, "dtype": "DT_FLOAT"}}, "dtype": {"type": "DT_FLOAT"}}}, {"op": "Const", "name": "bert/encoder/layer_16/bottleneck/input/FakeLayerNorm/gamma", "attr": {"value": {"tensor": {"tensorShape": {"dim": [{"size": "128"}]}, "dtype": "DT_FLOAT"}}, "dtype": {"type": "DT_FLOAT"}}}, {"op": "Const", "name": "bert/encoder/layer_16/bottleneck/input/dense/kernel", "attr": {"value": {"tensor": {"tensorShape": {"dim": [{"size": "512"}, {"size": "128"}]}, "dtype": "DT_FLOAT"}}, "dtype": {"type": "DT_FLOAT"}}}, {"op": "Const", "name": "bert/encoder/layer_16/bottleneck/input/dense/bias", "attr": {"value": {"tensor": {"tensorShape": {"dim": [{"size": "128"}]}, "dtype": "DT_FLOAT"}}, "dtype": {"type": "DT_FLOAT"}}}, {"op": "Const", "name": "bert/encoder/layer_15/output/bottleneck/FakeLayerNorm/beta", "attr": {"value": {"tensor": {"tensorShape": {"dim": [{"size": "512"}]}, "dtype": "DT_FLOAT"}}, "dtype": {"type": "DT_FLOAT"}}}, {"op": "Const", "name": "bert/encoder/layer_15/output/bottleneck/FakeLayerNorm/gamma", "attr": {"value": {"tensor": {"tensorShape": {"dim": [{"size": "512"}]}, "dtype": "DT_FLOAT"}}, "dtype": {"type": "DT_FLOAT"}}}, {"op": "Const", "name": "bert/encoder/layer_15/output/bottleneck/dense/kernel", "attr": {"value": {"tensor": {"tensorShape": {"dim": [{"size": "128"}, {"size": "512"}]}, "dtype": "DT_FLOAT"}}, "dtype": {"type": "DT_FLOAT"}}}, {"op": "Const", "name": "bert/encoder/layer_15/output/bottleneck/dense/bias", "attr": {"value": {"tensor": {"tensorShape": {"dim": [{"size": "512"}]}, "dtype": "DT_FLOAT"}}, "dtype": {"type": "DT_FLOAT"}}}, {"op": "Const", "name": "bert/encoder/layer_15/output/FakeLayerNorm/beta", "attr": {"value": {"tensor": {"tensorShape": {"dim": [{"size": "128"}]}, "dtype": "DT_FLOAT"}}, "dtype": {"type": "DT_FLOAT"}}}, {"op": "Const", "name": "bert/encoder/layer_15/output/FakeLayerNorm/gamma", "attr": {"value": {"tensor": {"tensorShape": {"dim": [{"size": "128"}]}, "dtype": "DT_FLOAT"}}, "dtype": {"type": "DT_FLOAT"}}}, {"op": "Const", "name": "bert/encoder/layer_15/output/dense/kernel", "attr": {"value": {"tensor": {"tensorShape": {"dim": [{"size": "512"}, {"size": "128"}]}, "dtype": "DT_FLOAT"}}, "dtype": {"type": "DT_FLOAT"}}}, {"op": "Const", "name": "bert/encoder/layer_15/output/dense/bias", "attr": {"value": {"tensor": {"tensorShape": {"dim": [{"size": "128"}]}, "dtype": "DT_FLOAT"}}, "dtype": {"type": "DT_FLOAT"}}}, {"op": "Const", "name": "bert/encoder/layer_15/intermediate/dense/kernel", "attr": {"value": {"tensor": {"tensorShape": {"dim": [{"size": "128"}, {"size": "512"}]}, "dtype": "DT_FLOAT"}}, "dtype": {"type": "DT_FLOAT"}}}, {"op": "Const", "name": "bert/encoder/layer_15/intermediate/dense/bias", "attr": {"value": {"tensor": {"tensorShape": {"dim": [{"size": "512"}]}, "dtype": "DT_FLOAT"}}, "dtype": {"type": "DT_FLOAT"}}}, {"op": "Const", "name": "bert/encoder/layer_15/ffn_layer_2/output/FakeLayerNorm/beta", "attr": {"value": {"tensor": {"tensorShape": {"dim": [{"size": "128"}]}, "dtype": "DT_FLOAT"}}, "dtype": {"type": "DT_FLOAT"}}}, {"op": "Const", "name": "bert/encoder/layer_15/ffn_layer_2/output/FakeLayerNorm/gamma", "attr": {"value": {"tensor": {"tensorShape": {"dim": [{"size": "128"}]}, "dtype": "DT_FLOAT"}}, "dtype": {"type": "DT_FLOAT"}}}, {"op": "Const", "name": "bert/encoder/layer_15/ffn_layer_2/output/dense/kernel", "attr": {"value": {"tensor": {"tensorShape": {"dim": [{"size": "512"}, {"size": "128"}]}, "dtype": "DT_FLOAT"}}, "dtype": {"type": "DT_FLOAT"}}}, {"op": "Const", "name": "bert/encoder/layer_15/ffn_layer_2/output/dense/bias", "attr": {"value": {"tensor": {"tensorShape": {"dim": [{"size": "128"}]}, "dtype": "DT_FLOAT"}}, "dtype": {"type": "DT_FLOAT"}}}, {"op": "Const", "name": "bert/encoder/layer_15/ffn_layer_2/intermediate/dense/kernel", "attr": {"value": {"tensor": {"tensorShape": {"dim": [{"size": "128"}, {"size": "512"}]}, "dtype": "DT_FLOAT"}}, "dtype": {"type": "DT_FLOAT"}}}, {"op": "Const", "name": "bert/encoder/layer_15/ffn_layer_2/intermediate/dense/bias", "attr": {"value": {"tensor": {"tensorShape": {"dim": [{"size": "512"}]}, "dtype": "DT_FLOAT"}}, "dtype": {"type": "DT_FLOAT"}}}, {"op": "Const", "name": "bert/encoder/layer_15/ffn_layer_1/output/FakeLayerNorm/beta", "attr": {"value": {"tensor": {"tensorShape": {"dim": [{"size": "128"}]}, "dtype": "DT_FLOAT"}}, "dtype": {"type": "DT_FLOAT"}}}, {"op": "Const", "name": "bert/encoder/layer_15/ffn_layer_1/output/FakeLayerNorm/gamma", "attr": {"value": {"tensor": {"tensorShape": {"dim": [{"size": "128"}]}, "dtype": "DT_FLOAT"}}, "dtype": {"type": "DT_FLOAT"}}}, {"op": "Const", "name": "bert/encoder/layer_15/ffn_layer_1/output/dense/kernel", "attr": {"value": {"tensor": {"tensorShape": {"dim": [{"size": "512"}, {"size": "128"}]}, "dtype": "DT_FLOAT"}}, "dtype": {"type": "DT_FLOAT"}}}, {"op": "Const", "name": "bert/encoder/layer_15/ffn_layer_1/output/dense/bias", "attr": {"value": {"tensor": {"tensorShape": {"dim": [{"size": "128"}]}, "dtype": "DT_FLOAT"}}, "dtype": {"type": "DT_FLOAT"}}}, {"op": "Const", "name": "bert/encoder/layer_15/ffn_layer_1/intermediate/dense/kernel", "attr": {"value": {"tensor": {"tensorShape": {"dim": [{"size": "128"}, {"size": "512"}]}, "dtype": "DT_FLOAT"}}, "dtype": {"type": "DT_FLOAT"}}}, {"op": "Const", "name": "bert/encoder/layer_15/ffn_layer_1/intermediate/dense/bias", "attr": {"value": {"tensor": {"tensorShape": {"dim": [{"size": "512"}]}, "dtype": "DT_FLOAT"}}, "dtype": {"type": "DT_FLOAT"}}}, {"op": "Const", "name": "bert/encoder/layer_15/ffn_layer_0/output/FakeLayerNorm/beta", "attr": {"value": {"tensor": {"tensorShape": {"dim": [{"size": "128"}]}, "dtype": "DT_FLOAT"}}, "dtype": {"type": "DT_FLOAT"}}}, {"op": "Const", "name": "bert/encoder/layer_15/ffn_layer_0/output/FakeLayerNorm/gamma", "attr": {"value": {"tensor": {"tensorShape": {"dim": [{"size": "128"}]}, "dtype": "DT_FLOAT"}}, "dtype": {"type": "DT_FLOAT"}}}, {"op": "Const", "name": "bert/encoder/layer_15/ffn_layer_0/output/dense/kernel", "attr": {"value": {"tensor": {"tensorShape": {"dim": [{"size": "512"}, {"size": "128"}]}, "dtype": "DT_FLOAT"}}, "dtype": {"type": "DT_FLOAT"}}}, {"op": "Const", "name": "bert/encoder/layer_15/ffn_layer_0/output/dense/bias", "attr": {"value": {"tensor": {"tensorShape": {"dim": [{"size": "128"}]}, "dtype": "DT_FLOAT"}}, "dtype": {"type": "DT_FLOAT"}}}, {"op": "Const", "name": "bert/encoder/layer_15/ffn_layer_0/intermediate/dense/kernel", "attr": {"value": {"tensor": {"tensorShape": {"dim": [{"size": "128"}, {"size": "512"}]}, "dtype": "DT_FLOAT"}}, "dtype": {"type": "DT_FLOAT"}}}, {"op": "Const", "name": "bert/encoder/layer_15/ffn_layer_0/intermediate/dense/bias", "attr": {"value": {"tensor": {"tensorShape": {"dim": [{"size": "512"}]}, "dtype": "DT_FLOAT"}}, "dtype": {"type": "DT_FLOAT"}}}, {"op": "Const", "name": "bert/encoder/layer_15/attention/output/FakeLayerNorm/beta", "attr": {"value": {"tensor": {"tensorShape": {"dim": [{"size": "128"}]}, "dtype": "DT_FLOAT"}}, "dtype": {"type": "DT_FLOAT"}}}, {"op": "Const", "name": "bert/encoder/layer_15/attention/output/FakeLayerNorm/gamma", "attr": {"value": {"tensor": {"tensorShape": {"dim": [{"size": "128"}]}, "dtype": "DT_FLOAT"}}, "dtype": {"type": "DT_FLOAT"}}}, {"op": "Const", "name": "bert/encoder/layer_15/attention/output/dense/kernel", "attr": {"value": {"tensor": {"tensorShape": {"dim": [{"size": "128"}, {"size": "128"}]}, "dtype": "DT_FLOAT"}}, "dtype": {"type": "DT_FLOAT"}}}, {"op": "Const", "name": "bert/encoder/layer_15/attention/self/query/kernel", "attr": {"value": {"tensor": {"tensorShape": {"dim": [{"size": "128"}, {"size": "128"}]}, "dtype": "DT_FLOAT"}}, "dtype": {"type": "DT_FLOAT"}}}, {"op": "Const", "name": "bert/encoder/layer_15/attention/self/query/bias", "attr": {"value": {"tensor": {"tensorShape": {"dim": [{"size": "128"}]}, "dtype": "DT_FLOAT"}}, "dtype": {"type": "DT_FLOAT"}}}, {"op": "Const", "name": "bert/encoder/layer_15/attention/self/key/kernel", "attr": {"value": {"tensor": {"tensorShape": {"dim": [{"size": "128"}, {"size": "128"}]}, "dtype": "DT_FLOAT"}}, "dtype": {"type": "DT_FLOAT"}}}, {"op": "Const", "name": "bert/encoder/layer_15/attention/self/key/bias", "attr": {"value": {"tensor": {"tensorShape": {"dim": [{"size": "128"}]}, "dtype": "DT_FLOAT"}}, "dtype": {"type": "DT_FLOAT"}}}, {"op": "Const", "name": "bert/encoder/layer_15/bottleneck/attention/FakeLayerNorm/beta", "attr": {"value": {"tensor": {"tensorShape": {"dim": [{"size": "128"}]}, "dtype": "DT_FLOAT"}}, "dtype": {"type": "DT_FLOAT"}}}, {"op": "Const", "name": "bert/encoder/layer_15/bottleneck/attention/FakeLayerNorm/gamma", "attr": {"value": {"tensor": {"tensorShape": {"dim": [{"size": "128"}]}, "dtype": "DT_FLOAT"}}, "dtype": {"type": "DT_FLOAT"}}}, {"op": "Const", "name": "bert/encoder/layer_15/bottleneck/attention/dense/kernel", "attr": {"value": {"tensor": {"tensorShape": {"dim": [{"size": "512"}, {"size": "128"}]}, "dtype": "DT_FLOAT"}}, "dtype": {"type": "DT_FLOAT"}}}, {"op": "Const", "name": "bert/encoder/layer_15/bottleneck/attention/dense/bias", "attr": {"value": {"tensor": {"tensorShape": {"dim": [{"size": "128"}]}, "dtype": "DT_FLOAT"}}, "dtype": {"type": "DT_FLOAT"}}}, {"op": "Const", "name": "bert/encoder/layer_15/attention/self/value/kernel", "attr": {"value": {"tensor": {"tensorShape": {"dim": [{"size": "128"}, {"size": "128"}]}, "dtype": "DT_FLOAT"}}, "dtype": {"type": "DT_FLOAT"}}}, {"op": "Const", "name": "bert/encoder/layer_15/attention/self/value/bias", "attr": {"value": {"tensor": {"tensorShape": {"dim": [{"size": "128"}]}, "dtype": "DT_FLOAT"}}, "dtype": {"type": "DT_FLOAT"}}}, {"op": "Const", "name": "bert/encoder/layer_15/bottleneck/value/FakeLayerNorm/beta", "attr": {"value": {"tensor": {"tensorShape": {"dim": [{"size": "128"}]}, "dtype": "DT_FLOAT"}}, "dtype": {"type": "DT_FLOAT"}}}, {"op": "Const", "name": "bert/encoder/layer_15/bottleneck/value/FakeLayerNorm/gamma", "attr": {"value": {"tensor": {"tensorShape": {"dim": [{"size": "128"}]}, "dtype": "DT_FLOAT"}}, "dtype": {"type": "DT_FLOAT"}}}, {"op": "Const", "name": "bert/encoder/layer_15/bottleneck/value/dense/kernel", "attr": {"value": {"tensor": {"tensorShape": {"dim": [{"size": "512"}, {"size": "128"}]}, "dtype": "DT_FLOAT"}}, "dtype": {"type": "DT_FLOAT"}}}, {"op": "Const", "name": "bert/encoder/layer_15/bottleneck/value/dense/bias", "attr": {"value": {"tensor": {"tensorShape": {"dim": [{"size": "128"}]}, "dtype": "DT_FLOAT"}}, "dtype": {"type": "DT_FLOAT"}}}, {"op": "Const", "name": "bert/encoder/layer_15/attention/output/dense/bias", "attr": {"value": {"tensor": {"tensorShape": {"dim": [{"size": "128"}]}, "dtype": "DT_FLOAT"}}, "dtype": {"type": "DT_FLOAT"}}}, {"op": "Const", "name": "bert/encoder/layer_15/bottleneck/input/FakeLayerNorm/gamma", "attr": {"value": {"tensor": {"tensorShape": {"dim": [{"size": "128"}]}, "dtype": "DT_FLOAT"}}, "dtype": {"type": "DT_FLOAT"}}}, {"op": "Const", "name": "bert/encoder/layer_15/bottleneck/input/dense/kernel", "attr": {"value": {"tensor": {"tensorShape": {"dim": [{"size": "512"}, {"size": "128"}]}, "dtype": "DT_FLOAT"}}, "dtype": {"type": "DT_FLOAT"}}}, {"op": "Const", "name": "bert/encoder/layer_15/bottleneck/input/dense/bias", "attr": {"value": {"tensor": {"tensorShape": {"dim": [{"size": "128"}]}, "dtype": "DT_FLOAT"}}, "dtype": {"type": "DT_FLOAT"}}}, {"op": "Const", "name": "bert/encoder/layer_14/output/bottleneck/FakeLayerNorm/beta", "attr": {"value": {"tensor": {"tensorShape": {"dim": [{"size": "512"}]}, "dtype": "DT_FLOAT"}}, "dtype": {"type": "DT_FLOAT"}}}, {"op": "Const", "name": "bert/encoder/layer_14/output/bottleneck/FakeLayerNorm/gamma", "attr": {"value": {"tensor": {"tensorShape": {"dim": [{"size": "512"}]}, "dtype": "DT_FLOAT"}}, "dtype": {"type": "DT_FLOAT"}}}, {"op": "Const", "name": "bert/encoder/layer_14/output/bottleneck/dense/kernel", "attr": {"value": {"tensor": {"tensorShape": {"dim": [{"size": "128"}, {"size": "512"}]}, "dtype": "DT_FLOAT"}}, "dtype": {"type": "DT_FLOAT"}}}, {"op": "Const", "name": "bert/encoder/layer_14/output/bottleneck/dense/bias", "attr": {"value": {"tensor": {"tensorShape": {"dim": [{"size": "512"}]}, "dtype": "DT_FLOAT"}}, "dtype": {"type": "DT_FLOAT"}}}, {"op": "Const", "name": "bert/encoder/layer_14/output/FakeLayerNorm/beta", "attr": {"value": {"tensor": {"tensorShape": {"dim": [{"size": "128"}]}, "dtype": "DT_FLOAT"}}, "dtype": {"type": "DT_FLOAT"}}}, {"op": "Const", "name": "bert/encoder/layer_14/output/FakeLayerNorm/gamma", "attr": {"value": {"tensor": {"tensorShape": {"dim": [{"size": "128"}]}, "dtype": "DT_FLOAT"}}, "dtype": {"type": "DT_FLOAT"}}}, {"op": "Const", "name": "bert/encoder/layer_14/output/dense/kernel", "attr": {"value": {"tensor": {"tensorShape": {"dim": [{"size": "512"}, {"size": "128"}]}, "dtype": "DT_FLOAT"}}, "dtype": {"type": "DT_FLOAT"}}}, {"op": "Const", "name": "bert/encoder/layer_14/output/dense/bias", "attr": {"value": {"tensor": {"tensorShape": {"dim": [{"size": "128"}]}, "dtype": "DT_FLOAT"}}, "dtype": {"type": "DT_FLOAT"}}}, {"op": "Const", "name": "bert/encoder/layer_14/intermediate/dense/kernel", "attr": {"value": {"tensor": {"tensorShape": {"dim": [{"size": "128"}, {"size": "512"}]}, "dtype": "DT_FLOAT"}}, "dtype": {"type": "DT_FLOAT"}}}, {"op": "Const", "name": "bert/encoder/layer_14/intermediate/dense/bias", "attr": {"value": {"tensor": {"tensorShape": {"dim": [{"size": "512"}]}, "dtype": "DT_FLOAT"}}, "dtype": {"type": "DT_FLOAT"}}}, {"op": "Const", "name": "bert/encoder/layer_14/ffn_layer_2/output/FakeLayerNorm/beta", "attr": {"value": {"tensor": {"tensorShape": {"dim": [{"size": "128"}]}, "dtype": "DT_FLOAT"}}, "dtype": {"type": "DT_FLOAT"}}}, {"op": "Const", "name": "bert/encoder/layer_14/ffn_layer_2/output/FakeLayerNorm/gamma", "attr": {"value": {"tensor": {"tensorShape": {"dim": [{"size": "128"}]}, "dtype": "DT_FLOAT"}}, "dtype": {"type": "DT_FLOAT"}}}, {"op": "Const", "name": "bert/encoder/layer_14/ffn_layer_2/output/dense/kernel", "attr": {"value": {"tensor": {"tensorShape": {"dim": [{"size": "512"}, {"size": "128"}]}, "dtype": "DT_FLOAT"}}, "dtype": {"type": "DT_FLOAT"}}}, {"op": "Const", "name": "bert/encoder/layer_14/ffn_layer_2/output/dense/bias", "attr": {"value": {"tensor": {"tensorShape": {"dim": [{"size": "128"}]}, "dtype": "DT_FLOAT"}}, "dtype": {"type": "DT_FLOAT"}}}, {"op": "Const", "name": "bert/encoder/layer_14/ffn_layer_2/intermediate/dense/kernel", "attr": {"value": {"tensor": {"tensorShape": {"dim": [{"size": "128"}, {"size": "512"}]}, "dtype": "DT_FLOAT"}}, "dtype": {"type": "DT_FLOAT"}}}, {"op": "Const", "name": "bert/encoder/layer_14/ffn_layer_2/intermediate/dense/bias", "attr": {"value": {"tensor": {"tensorShape": {"dim": [{"size": "512"}]}, "dtype": "DT_FLOAT"}}, "dtype": {"type": "DT_FLOAT"}}}, {"op": "Const", "name": "bert/encoder/layer_14/ffn_layer_1/output/FakeLayerNorm/beta", "attr": {"value": {"tensor": {"tensorShape": {"dim": [{"size": "128"}]}, "dtype": "DT_FLOAT"}}, "dtype": {"type": "DT_FLOAT"}}}, {"op": "Const", "name": "bert/encoder/layer_14/ffn_layer_1/output/FakeLayerNorm/gamma", "attr": {"value": {"tensor": {"tensorShape": {"dim": [{"size": "128"}]}, "dtype": "DT_FLOAT"}}, "dtype": {"type": "DT_FLOAT"}}}, {"op": "Const", "name": "bert/encoder/layer_14/ffn_layer_1/output/dense/kernel", "attr": {"value": {"tensor": {"tensorShape": {"dim": [{"size": "512"}, {"size": "128"}]}, "dtype": "DT_FLOAT"}}, "dtype": {"type": "DT_FLOAT"}}}, {"op": "Const", "name": "bert/encoder/layer_14/ffn_layer_1/output/dense/bias", "attr": {"value": {"tensor": {"tensorShape": {"dim": [{"size": "128"}]}, "dtype": "DT_FLOAT"}}, "dtype": {"type": "DT_FLOAT"}}}, {"op": "Const", "name": "bert/encoder/layer_14/ffn_layer_1/intermediate/dense/kernel", "attr": {"value": {"tensor": {"tensorShape": {"dim": [{"size": "128"}, {"size": "512"}]}, "dtype": "DT_FLOAT"}}, "dtype": {"type": "DT_FLOAT"}}}, {"op": "Const", "name": "bert/encoder/layer_14/ffn_layer_1/intermediate/dense/bias", "attr": {"value": {"tensor": {"tensorShape": {"dim": [{"size": "512"}]}, "dtype": "DT_FLOAT"}}, "dtype": {"type": "DT_FLOAT"}}}, {"op": "Const", "name": "bert/encoder/layer_14/ffn_layer_0/output/FakeLayerNorm/beta", "attr": {"value": {"tensor": {"tensorShape": {"dim": [{"size": "128"}]}, "dtype": "DT_FLOAT"}}, "dtype": {"type": "DT_FLOAT"}}}, {"op": "Const", "name": "bert/encoder/layer_14/ffn_layer_0/output/FakeLayerNorm/gamma", "attr": {"value": {"tensor": {"tensorShape": {"dim": [{"size": "128"}]}, "dtype": "DT_FLOAT"}}, "dtype": {"type": "DT_FLOAT"}}}, {"op": "Const", "name": "bert/encoder/layer_14/ffn_layer_0/output/dense/kernel", "attr": {"value": {"tensor": {"tensorShape": {"dim": [{"size": "512"}, {"size": "128"}]}, "dtype": "DT_FLOAT"}}, "dtype": {"type": "DT_FLOAT"}}}, {"op": "Const", "name": "bert/encoder/layer_14/ffn_layer_0/output/dense/bias", "attr": {"value": {"tensor": {"tensorShape": {"dim": [{"size": "128"}]}, "dtype": "DT_FLOAT"}}, "dtype": {"type": "DT_FLOAT"}}}, {"op": "Const", "name": "bert/encoder/layer_14/ffn_layer_0/intermediate/dense/kernel", "attr": {"value": {"tensor": {"tensorShape": {"dim": [{"size": "128"}, {"size": "512"}]}, "dtype": "DT_FLOAT"}}, "dtype": {"type": "DT_FLOAT"}}}, {"op": "Const", "name": "bert/encoder/layer_14/ffn_layer_0/intermediate/dense/bias", "attr": {"value": {"tensor": {"tensorShape": {"dim": [{"size": "512"}]}, "dtype": "DT_FLOAT"}}, "dtype": {"type": "DT_FLOAT"}}}, {"op": "Const", "name": "bert/encoder/layer_14/attention/output/FakeLayerNorm/beta", "attr": {"value": {"tensor": {"tensorShape": {"dim": [{"size": "128"}]}, "dtype": "DT_FLOAT"}}, "dtype": {"type": "DT_FLOAT"}}}, {"op": "Const", "name": "bert/encoder/layer_14/attention/output/FakeLayerNorm/gamma", "attr": {"value": {"tensor": {"tensorShape": {"dim": [{"size": "128"}]}, "dtype": "DT_FLOAT"}}, "dtype": {"type": "DT_FLOAT"}}}, {"op": "Const", "name": "bert/encoder/layer_14/attention/output/dense/kernel", "attr": {"value": {"tensor": {"tensorShape": {"dim": [{"size": "128"}, {"size": "128"}]}, "dtype": "DT_FLOAT"}}, "dtype": {"type": "DT_FLOAT"}}}, {"op": "Const", "name": "bert/encoder/layer_14/attention/self/query/kernel", "attr": {"value": {"tensor": {"tensorShape": {"dim": [{"size": "128"}, {"size": "128"}]}, "dtype": "DT_FLOAT"}}, "dtype": {"type": "DT_FLOAT"}}}, {"op": "Const", "name": "bert/encoder/layer_14/attention/self/query/bias", "attr": {"value": {"tensor": {"tensorShape": {"dim": [{"size": "128"}]}, "dtype": "DT_FLOAT"}}, "dtype": {"type": "DT_FLOAT"}}}, {"op": "Const", "name": "bert/encoder/layer_14/attention/self/key/kernel", "attr": {"value": {"tensor": {"tensorShape": {"dim": [{"size": "128"}, {"size": "128"}]}, "dtype": "DT_FLOAT"}}, "dtype": {"type": "DT_FLOAT"}}}, {"op": "Const", "name": "bert/encoder/layer_14/attention/self/key/bias", "attr": {"value": {"tensor": {"tensorShape": {"dim": [{"size": "128"}]}, "dtype": "DT_FLOAT"}}, "dtype": {"type": "DT_FLOAT"}}}, {"op": "Const", "name": "bert/encoder/layer_14/bottleneck/attention/FakeLayerNorm/beta", "attr": {"value": {"tensor": {"tensorShape": {"dim": [{"size": "128"}]}, "dtype": "DT_FLOAT"}}, "dtype": {"type": "DT_FLOAT"}}}, {"op": "Const", "name": "bert/encoder/layer_14/bottleneck/attention/FakeLayerNorm/gamma", "attr": {"value": {"tensor": {"tensorShape": {"dim": [{"size": "128"}]}, "dtype": "DT_FLOAT"}}, "dtype": {"type": "DT_FLOAT"}}}, {"op": "Const", "name": "bert/encoder/layer_14/bottleneck/attention/dense/kernel", "attr": {"value": {"tensor": {"tensorShape": {"dim": [{"size": "512"}, {"size": "128"}]}, "dtype": "DT_FLOAT"}}, "dtype": {"type": "DT_FLOAT"}}}, {"op": "Const", "name": "bert/encoder/layer_14/bottleneck/attention/dense/bias", "attr": {"value": {"tensor": {"tensorShape": {"dim": [{"size": "128"}]}, "dtype": "DT_FLOAT"}}, "dtype": {"type": "DT_FLOAT"}}}, {"op": "Const", "name": "bert/encoder/layer_14/attention/self/value/kernel", "attr": {"value": {"tensor": {"tensorShape": {"dim": [{"size": "128"}, {"size": "128"}]}, "dtype": "DT_FLOAT"}}, "dtype": {"type": "DT_FLOAT"}}}, {"op": "Const", "name": "bert/encoder/layer_14/attention/self/value/bias", "attr": {"value": {"tensor": {"tensorShape": {"dim": [{"size": "128"}]}, "dtype": "DT_FLOAT"}}, "dtype": {"type": "DT_FLOAT"}}}, {"op": "Const", "name": "bert/encoder/layer_14/bottleneck/value/FakeLayerNorm/beta", "attr": {"value": {"tensor": {"tensorShape": {"dim": [{"size": "128"}]}, "dtype": "DT_FLOAT"}}, "dtype": {"type": "DT_FLOAT"}}}, {"op": "Const", "name": "bert/encoder/layer_14/bottleneck/value/FakeLayerNorm/gamma", "attr": {"value": {"tensor": {"tensorShape": {"dim": [{"size": "128"}]}, "dtype": "DT_FLOAT"}}, "dtype": {"type": "DT_FLOAT"}}}, {"op": "Const", "name": "bert/encoder/layer_14/bottleneck/value/dense/kernel", "attr": {"value": {"tensor": {"tensorShape": {"dim": [{"size": "512"}, {"size": "128"}]}, "dtype": "DT_FLOAT"}}, "dtype": {"type": "DT_FLOAT"}}}, {"op": "Const", "name": "bert/encoder/layer_14/bottleneck/value/dense/bias", "attr": {"value": {"tensor": {"tensorShape": {"dim": [{"size": "128"}]}, "dtype": "DT_FLOAT"}}, "dtype": {"type": "DT_FLOAT"}}}, {"op": "Const", "name": "bert/encoder/layer_14/attention/output/dense/bias", "attr": {"value": {"tensor": {"tensorShape": {"dim": [{"size": "128"}]}, "dtype": "DT_FLOAT"}}, "dtype": {"type": "DT_FLOAT"}}}, {"op": "Const", "name": "bert/encoder/layer_14/bottleneck/input/FakeLayerNorm/gamma", "attr": {"value": {"tensor": {"tensorShape": {"dim": [{"size": "128"}]}, "dtype": "DT_FLOAT"}}, "dtype": {"type": "DT_FLOAT"}}}, {"op": "Const", "name": "bert/encoder/layer_14/bottleneck/input/dense/kernel", "attr": {"value": {"tensor": {"tensorShape": {"dim": [{"size": "512"}, {"size": "128"}]}, "dtype": "DT_FLOAT"}}, "dtype": {"type": "DT_FLOAT"}}}, {"op": "Const", "name": "bert/encoder/layer_14/bottleneck/input/dense/bias", "attr": {"value": {"tensor": {"tensorShape": {"dim": [{"size": "128"}]}, "dtype": "DT_FLOAT"}}, "dtype": {"type": "DT_FLOAT"}}}, {"op": "Const", "name": "bert/encoder/layer_13/output/bottleneck/FakeLayerNorm/beta", "attr": {"value": {"tensor": {"tensorShape": {"dim": [{"size": "512"}]}, "dtype": "DT_FLOAT"}}, "dtype": {"type": "DT_FLOAT"}}}, {"op": "Const", "name": "bert/encoder/layer_13/output/bottleneck/FakeLayerNorm/gamma", "attr": {"value": {"tensor": {"tensorShape": {"dim": [{"size": "512"}]}, "dtype": "DT_FLOAT"}}, "dtype": {"type": "DT_FLOAT"}}}, {"op": "Const", "name": "bert/encoder/layer_13/output/bottleneck/dense/kernel", "attr": {"value": {"tensor": {"tensorShape": {"dim": [{"size": "128"}, {"size": "512"}]}, "dtype": "DT_FLOAT"}}, "dtype": {"type": "DT_FLOAT"}}}, {"op": "Const", "name": "bert/encoder/layer_13/output/bottleneck/dense/bias", "attr": {"value": {"tensor": {"tensorShape": {"dim": [{"size": "512"}]}, "dtype": "DT_FLOAT"}}, "dtype": {"type": "DT_FLOAT"}}}, {"op": "Const", "name": "bert/encoder/layer_13/output/FakeLayerNorm/beta", "attr": {"value": {"tensor": {"tensorShape": {"dim": [{"size": "128"}]}, "dtype": "DT_FLOAT"}}, "dtype": {"type": "DT_FLOAT"}}}, {"op": "Const", "name": "bert/encoder/layer_13/output/FakeLayerNorm/gamma", "attr": {"value": {"tensor": {"tensorShape": {"dim": [{"size": "128"}]}, "dtype": "DT_FLOAT"}}, "dtype": {"type": "DT_FLOAT"}}}, {"op": "Const", "name": "bert/encoder/layer_13/output/dense/kernel", "attr": {"value": {"tensor": {"tensorShape": {"dim": [{"size": "512"}, {"size": "128"}]}, "dtype": "DT_FLOAT"}}, "dtype": {"type": "DT_FLOAT"}}}, {"op": "Const", "name": "bert/encoder/layer_13/output/dense/bias", "attr": {"value": {"tensor": {"tensorShape": {"dim": [{"size": "128"}]}, "dtype": "DT_FLOAT"}}, "dtype": {"type": "DT_FLOAT"}}}, {"op": "Const", "name": "bert/encoder/layer_13/intermediate/dense/kernel", "attr": {"value": {"tensor": {"tensorShape": {"dim": [{"size": "128"}, {"size": "512"}]}, "dtype": "DT_FLOAT"}}, "dtype": {"type": "DT_FLOAT"}}}, {"op": "Const", "name": "bert/encoder/layer_13/intermediate/dense/bias", "attr": {"value": {"tensor": {"tensorShape": {"dim": [{"size": "512"}]}, "dtype": "DT_FLOAT"}}, "dtype": {"type": "DT_FLOAT"}}}, {"op": "Const", "name": "bert/encoder/layer_13/ffn_layer_2/output/FakeLayerNorm/beta", "attr": {"value": {"tensor": {"tensorShape": {"dim": [{"size": "128"}]}, "dtype": "DT_FLOAT"}}, "dtype": {"type": "DT_FLOAT"}}}, {"op": "Const", "name": "bert/encoder/layer_13/ffn_layer_2/output/FakeLayerNorm/gamma", "attr": {"value": {"tensor": {"tensorShape": {"dim": [{"size": "128"}]}, "dtype": "DT_FLOAT"}}, "dtype": {"type": "DT_FLOAT"}}}, {"op": "Const", "name": "bert/encoder/layer_13/ffn_layer_2/output/dense/kernel", "attr": {"value": {"tensor": {"tensorShape": {"dim": [{"size": "512"}, {"size": "128"}]}, "dtype": "DT_FLOAT"}}, "dtype": {"type": "DT_FLOAT"}}}, {"op": "Const", "name": "bert/encoder/layer_13/ffn_layer_2/output/dense/bias", "attr": {"value": {"tensor": {"tensorShape": {"dim": [{"size": "128"}]}, "dtype": "DT_FLOAT"}}, "dtype": {"type": "DT_FLOAT"}}}, {"op": "Const", "name": "bert/encoder/layer_13/ffn_layer_2/intermediate/dense/kernel", "attr": {"value": {"tensor": {"tensorShape": {"dim": [{"size": "128"}, {"size": "512"}]}, "dtype": "DT_FLOAT"}}, "dtype": {"type": "DT_FLOAT"}}}, {"op": "Const", "name": "bert/encoder/layer_13/ffn_layer_2/intermediate/dense/bias", "attr": {"value": {"tensor": {"tensorShape": {"dim": [{"size": "512"}]}, "dtype": "DT_FLOAT"}}, "dtype": {"type": "DT_FLOAT"}}}, {"op": "Const", "name": "bert/encoder/layer_13/ffn_layer_1/output/FakeLayerNorm/beta", "attr": {"value": {"tensor": {"tensorShape": {"dim": [{"size": "128"}]}, "dtype": "DT_FLOAT"}}, "dtype": {"type": "DT_FLOAT"}}}, {"op": "Const", "name": "bert/encoder/layer_13/ffn_layer_1/output/FakeLayerNorm/gamma", "attr": {"value": {"tensor": {"tensorShape": {"dim": [{"size": "128"}]}, "dtype": "DT_FLOAT"}}, "dtype": {"type": "DT_FLOAT"}}}, {"op": "Const", "name": "bert/encoder/layer_13/ffn_layer_1/output/dense/kernel", "attr": {"value": {"tensor": {"tensorShape": {"dim": [{"size": "512"}, {"size": "128"}]}, "dtype": "DT_FLOAT"}}, "dtype": {"type": "DT_FLOAT"}}}, {"op": "Const", "name": "bert/encoder/layer_13/ffn_layer_1/output/dense/bias", "attr": {"value": {"tensor": {"tensorShape": {"dim": [{"size": "128"}]}, "dtype": "DT_FLOAT"}}, "dtype": {"type": "DT_FLOAT"}}}, {"op": "Const", "name": "bert/encoder/layer_13/ffn_layer_1/intermediate/dense/kernel", "attr": {"value": {"tensor": {"tensorShape": {"dim": [{"size": "128"}, {"size": "512"}]}, "dtype": "DT_FLOAT"}}, "dtype": {"type": "DT_FLOAT"}}}, {"op": "Const", "name": "bert/encoder/layer_13/ffn_layer_1/intermediate/dense/bias", "attr": {"value": {"tensor": {"tensorShape": {"dim": [{"size": "512"}]}, "dtype": "DT_FLOAT"}}, "dtype": {"type": "DT_FLOAT"}}}, {"op": "Const", "name": "bert/encoder/layer_13/ffn_layer_0/output/FakeLayerNorm/beta", "attr": {"value": {"tensor": {"tensorShape": {"dim": [{"size": "128"}]}, "dtype": "DT_FLOAT"}}, "dtype": {"type": "DT_FLOAT"}}}, {"op": "Const", "name": "bert/encoder/layer_13/ffn_layer_0/output/FakeLayerNorm/gamma", "attr": {"value": {"tensor": {"tensorShape": {"dim": [{"size": "128"}]}, "dtype": "DT_FLOAT"}}, "dtype": {"type": "DT_FLOAT"}}}, {"op": "Const", "name": "bert/encoder/layer_13/ffn_layer_0/output/dense/kernel", "attr": {"value": {"tensor": {"tensorShape": {"dim": [{"size": "512"}, {"size": "128"}]}, "dtype": "DT_FLOAT"}}, "dtype": {"type": "DT_FLOAT"}}}, {"op": "Const", "name": "bert/encoder/layer_13/ffn_layer_0/output/dense/bias", "attr": {"value": {"tensor": {"tensorShape": {"dim": [{"size": "128"}]}, "dtype": "DT_FLOAT"}}, "dtype": {"type": "DT_FLOAT"}}}, {"op": "Const", "name": "bert/encoder/layer_13/ffn_layer_0/intermediate/dense/kernel", "attr": {"value": {"tensor": {"tensorShape": {"dim": [{"size": "128"}, {"size": "512"}]}, "dtype": "DT_FLOAT"}}, "dtype": {"type": "DT_FLOAT"}}}, {"op": "Const", "name": "bert/encoder/layer_13/ffn_layer_0/intermediate/dense/bias", "attr": {"value": {"tensor": {"tensorShape": {"dim": [{"size": "512"}]}, "dtype": "DT_FLOAT"}}, "dtype": {"type": "DT_FLOAT"}}}, {"op": "Const", "name": "bert/encoder/layer_13/attention/output/FakeLayerNorm/beta", "attr": {"value": {"tensor": {"tensorShape": {"dim": [{"size": "128"}]}, "dtype": "DT_FLOAT"}}, "dtype": {"type": "DT_FLOAT"}}}, {"op": "Const", "name": "bert/encoder/layer_13/attention/output/FakeLayerNorm/gamma", "attr": {"value": {"tensor": {"tensorShape": {"dim": [{"size": "128"}]}, "dtype": "DT_FLOAT"}}, "dtype": {"type": "DT_FLOAT"}}}, {"op": "Const", "name": "bert/encoder/layer_13/attention/output/dense/kernel", "attr": {"value": {"tensor": {"tensorShape": {"dim": [{"size": "128"}, {"size": "128"}]}, "dtype": "DT_FLOAT"}}, "dtype": {"type": "DT_FLOAT"}}}, {"op": "Const", "name": "bert/encoder/layer_13/attention/self/query/kernel", "attr": {"value": {"tensor": {"tensorShape": {"dim": [{"size": "128"}, {"size": "128"}]}, "dtype": "DT_FLOAT"}}, "dtype": {"type": "DT_FLOAT"}}}, {"op": "Const", "name": "bert/encoder/layer_13/attention/self/query/bias", "attr": {"value": {"tensor": {"tensorShape": {"dim": [{"size": "128"}]}, "dtype": "DT_FLOAT"}}, "dtype": {"type": "DT_FLOAT"}}}, {"op": "Const", "name": "bert/encoder/layer_13/attention/self/key/kernel", "attr": {"value": {"tensor": {"tensorShape": {"dim": [{"size": "128"}, {"size": "128"}]}, "dtype": "DT_FLOAT"}}, "dtype": {"type": "DT_FLOAT"}}}, {"op": "Const", "name": "bert/encoder/layer_13/attention/self/key/bias", "attr": {"value": {"tensor": {"tensorShape": {"dim": [{"size": "128"}]}, "dtype": "DT_FLOAT"}}, "dtype": {"type": "DT_FLOAT"}}}, {"op": "Const", "name": "bert/encoder/layer_13/bottleneck/attention/FakeLayerNorm/beta", "attr": {"value": {"tensor": {"tensorShape": {"dim": [{"size": "128"}]}, "dtype": "DT_FLOAT"}}, "dtype": {"type": "DT_FLOAT"}}}, {"op": "Const", "name": "bert/encoder/layer_13/bottleneck/attention/FakeLayerNorm/gamma", "attr": {"value": {"tensor": {"tensorShape": {"dim": [{"size": "128"}]}, "dtype": "DT_FLOAT"}}, "dtype": {"type": "DT_FLOAT"}}}, {"op": "Const", "name": "bert/encoder/layer_13/bottleneck/attention/dense/kernel", "attr": {"value": {"tensor": {"tensorShape": {"dim": [{"size": "512"}, {"size": "128"}]}, "dtype": "DT_FLOAT"}}, "dtype": {"type": "DT_FLOAT"}}}, {"op": "Const", "name": "bert/encoder/layer_13/bottleneck/attention/dense/bias", "attr": {"value": {"tensor": {"tensorShape": {"dim": [{"size": "128"}]}, "dtype": "DT_FLOAT"}}, "dtype": {"type": "DT_FLOAT"}}}, {"op": "Const", "name": "bert/encoder/layer_13/attention/self/value/kernel", "attr": {"value": {"tensor": {"tensorShape": {"dim": [{"size": "128"}, {"size": "128"}]}, "dtype": "DT_FLOAT"}}, "dtype": {"type": "DT_FLOAT"}}}, {"op": "Const", "name": "bert/encoder/layer_13/attention/self/value/bias", "attr": {"value": {"tensor": {"tensorShape": {"dim": [{"size": "128"}]}, "dtype": "DT_FLOAT"}}, "dtype": {"type": "DT_FLOAT"}}}, {"op": "Const", "name": "bert/encoder/layer_13/bottleneck/value/FakeLayerNorm/beta", "attr": {"value": {"tensor": {"tensorShape": {"dim": [{"size": "128"}]}, "dtype": "DT_FLOAT"}}, "dtype": {"type": "DT_FLOAT"}}}, {"op": "Const", "name": "bert/encoder/layer_13/bottleneck/value/FakeLayerNorm/gamma", "attr": {"value": {"tensor": {"tensorShape": {"dim": [{"size": "128"}]}, "dtype": "DT_FLOAT"}}, "dtype": {"type": "DT_FLOAT"}}}, {"op": "Const", "name": "bert/encoder/layer_13/bottleneck/value/dense/kernel", "attr": {"value": {"tensor": {"tensorShape": {"dim": [{"size": "512"}, {"size": "128"}]}, "dtype": "DT_FLOAT"}}, "dtype": {"type": "DT_FLOAT"}}}, {"op": "Const", "name": "bert/encoder/layer_13/bottleneck/value/dense/bias", "attr": {"value": {"tensor": {"tensorShape": {"dim": [{"size": "128"}]}, "dtype": "DT_FLOAT"}}, "dtype": {"type": "DT_FLOAT"}}}, {"op": "Const", "name": "bert/encoder/layer_13/attention/output/dense/bias", "attr": {"value": {"tensor": {"tensorShape": {"dim": [{"size": "128"}]}, "dtype": "DT_FLOAT"}}, "dtype": {"type": "DT_FLOAT"}}}, {"op": "Const", "name": "bert/encoder/layer_13/bottleneck/input/FakeLayerNorm/gamma", "attr": {"value": {"tensor": {"tensorShape": {"dim": [{"size": "128"}]}, "dtype": "DT_FLOAT"}}, "dtype": {"type": "DT_FLOAT"}}}, {"op": "Const", "name": "bert/encoder/layer_13/bottleneck/input/dense/kernel", "attr": {"value": {"tensor": {"tensorShape": {"dim": [{"size": "512"}, {"size": "128"}]}, "dtype": "DT_FLOAT"}}, "dtype": {"type": "DT_FLOAT"}}}, {"op": "Const", "name": "bert/encoder/layer_13/bottleneck/input/dense/bias", "attr": {"value": {"tensor": {"tensorShape": {"dim": [{"size": "128"}]}, "dtype": "DT_FLOAT"}}, "dtype": {"type": "DT_FLOAT"}}}, {"op": "Const", "name": "bert/encoder/layer_12/output/bottleneck/FakeLayerNorm/beta", "attr": {"value": {"tensor": {"tensorShape": {"dim": [{"size": "512"}]}, "dtype": "DT_FLOAT"}}, "dtype": {"type": "DT_FLOAT"}}}, {"op": "Const", "name": "bert/encoder/layer_12/output/bottleneck/FakeLayerNorm/gamma", "attr": {"value": {"tensor": {"tensorShape": {"dim": [{"size": "512"}]}, "dtype": "DT_FLOAT"}}, "dtype": {"type": "DT_FLOAT"}}}, {"op": "Const", "name": "bert/encoder/layer_12/output/bottleneck/dense/kernel", "attr": {"value": {"tensor": {"tensorShape": {"dim": [{"size": "128"}, {"size": "512"}]}, "dtype": "DT_FLOAT"}}, "dtype": {"type": "DT_FLOAT"}}}, {"op": "Const", "name": "bert/encoder/layer_12/output/bottleneck/dense/bias", "attr": {"value": {"tensor": {"tensorShape": {"dim": [{"size": "512"}]}, "dtype": "DT_FLOAT"}}, "dtype": {"type": "DT_FLOAT"}}}, {"op": "Const", "name": "bert/encoder/layer_12/output/FakeLayerNorm/beta", "attr": {"value": {"tensor": {"tensorShape": {"dim": [{"size": "128"}]}, "dtype": "DT_FLOAT"}}, "dtype": {"type": "DT_FLOAT"}}}, {"op": "Const", "name": "bert/encoder/layer_12/output/FakeLayerNorm/gamma", "attr": {"value": {"tensor": {"tensorShape": {"dim": [{"size": "128"}]}, "dtype": "DT_FLOAT"}}, "dtype": {"type": "DT_FLOAT"}}}, {"op": "Const", "name": "bert/encoder/layer_12/output/dense/kernel", "attr": {"value": {"tensor": {"tensorShape": {"dim": [{"size": "512"}, {"size": "128"}]}, "dtype": "DT_FLOAT"}}, "dtype": {"type": "DT_FLOAT"}}}, {"op": "Const", "name": "bert/encoder/layer_12/output/dense/bias", "attr": {"value": {"tensor": {"tensorShape": {"dim": [{"size": "128"}]}, "dtype": "DT_FLOAT"}}, "dtype": {"type": "DT_FLOAT"}}}, {"op": "Const", "name": "bert/encoder/layer_12/intermediate/dense/kernel", "attr": {"value": {"tensor": {"tensorShape": {"dim": [{"size": "128"}, {"size": "512"}]}, "dtype": "DT_FLOAT"}}, "dtype": {"type": "DT_FLOAT"}}}, {"op": "Const", "name": "bert/encoder/layer_12/intermediate/dense/bias", "attr": {"value": {"tensor": {"tensorShape": {"dim": [{"size": "512"}]}, "dtype": "DT_FLOAT"}}, "dtype": {"type": "DT_FLOAT"}}}, {"op": "Const", "name": "bert/encoder/layer_12/ffn_layer_2/output/FakeLayerNorm/beta", "attr": {"value": {"tensor": {"tensorShape": {"dim": [{"size": "128"}]}, "dtype": "DT_FLOAT"}}, "dtype": {"type": "DT_FLOAT"}}}, {"op": "Const", "name": "bert/encoder/layer_12/ffn_layer_2/output/FakeLayerNorm/gamma", "attr": {"value": {"tensor": {"tensorShape": {"dim": [{"size": "128"}]}, "dtype": "DT_FLOAT"}}, "dtype": {"type": "DT_FLOAT"}}}, {"op": "Const", "name": "bert/encoder/layer_12/ffn_layer_2/output/dense/kernel", "attr": {"value": {"tensor": {"tensorShape": {"dim": [{"size": "512"}, {"size": "128"}]}, "dtype": "DT_FLOAT"}}, "dtype": {"type": "DT_FLOAT"}}}, {"op": "Const", "name": "bert/encoder/layer_12/ffn_layer_2/output/dense/bias", "attr": {"value": {"tensor": {"tensorShape": {"dim": [{"size": "128"}]}, "dtype": "DT_FLOAT"}}, "dtype": {"type": "DT_FLOAT"}}}, {"op": "Const", "name": "bert/encoder/layer_12/ffn_layer_2/intermediate/dense/kernel", "attr": {"value": {"tensor": {"tensorShape": {"dim": [{"size": "128"}, {"size": "512"}]}, "dtype": "DT_FLOAT"}}, "dtype": {"type": "DT_FLOAT"}}}, {"op": "Const", "name": "bert/encoder/layer_12/ffn_layer_2/intermediate/dense/bias", "attr": {"value": {"tensor": {"tensorShape": {"dim": [{"size": "512"}]}, "dtype": "DT_FLOAT"}}, "dtype": {"type": "DT_FLOAT"}}}, {"op": "Const", "name": "bert/encoder/layer_12/ffn_layer_1/output/FakeLayerNorm/beta", "attr": {"value": {"tensor": {"tensorShape": {"dim": [{"size": "128"}]}, "dtype": "DT_FLOAT"}}, "dtype": {"type": "DT_FLOAT"}}}, {"op": "Const", "name": "bert/encoder/layer_12/ffn_layer_1/output/FakeLayerNorm/gamma", "attr": {"value": {"tensor": {"tensorShape": {"dim": [{"size": "128"}]}, "dtype": "DT_FLOAT"}}, "dtype": {"type": "DT_FLOAT"}}}, {"op": "Const", "name": "bert/encoder/layer_12/ffn_layer_1/output/dense/kernel", "attr": {"value": {"tensor": {"tensorShape": {"dim": [{"size": "512"}, {"size": "128"}]}, "dtype": "DT_FLOAT"}}, "dtype": {"type": "DT_FLOAT"}}}, {"op": "Const", "name": "bert/encoder/layer_12/ffn_layer_1/output/dense/bias", "attr": {"value": {"tensor": {"tensorShape": {"dim": [{"size": "128"}]}, "dtype": "DT_FLOAT"}}, "dtype": {"type": "DT_FLOAT"}}}, {"op": "Const", "name": "bert/encoder/layer_12/ffn_layer_1/intermediate/dense/kernel", "attr": {"value": {"tensor": {"tensorShape": {"dim": [{"size": "128"}, {"size": "512"}]}, "dtype": "DT_FLOAT"}}, "dtype": {"type": "DT_FLOAT"}}}, {"op": "Const", "name": "bert/encoder/layer_12/ffn_layer_1/intermediate/dense/bias", "attr": {"value": {"tensor": {"tensorShape": {"dim": [{"size": "512"}]}, "dtype": "DT_FLOAT"}}, "dtype": {"type": "DT_FLOAT"}}}, {"op": "Const", "name": "bert/encoder/layer_12/ffn_layer_0/output/FakeLayerNorm/beta", "attr": {"value": {"tensor": {"tensorShape": {"dim": [{"size": "128"}]}, "dtype": "DT_FLOAT"}}, "dtype": {"type": "DT_FLOAT"}}}, {"op": "Const", "name": "bert/encoder/layer_12/ffn_layer_0/output/FakeLayerNorm/gamma", "attr": {"value": {"tensor": {"tensorShape": {"dim": [{"size": "128"}]}, "dtype": "DT_FLOAT"}}, "dtype": {"type": "DT_FLOAT"}}}, {"op": "Const", "name": "bert/encoder/layer_12/ffn_layer_0/output/dense/kernel", "attr": {"value": {"tensor": {"tensorShape": {"dim": [{"size": "512"}, {"size": "128"}]}, "dtype": "DT_FLOAT"}}, "dtype": {"type": "DT_FLOAT"}}}, {"op": "Const", "name": "bert/encoder/layer_12/ffn_layer_0/output/dense/bias", "attr": {"value": {"tensor": {"tensorShape": {"dim": [{"size": "128"}]}, "dtype": "DT_FLOAT"}}, "dtype": {"type": "DT_FLOAT"}}}, {"op": "Const", "name": "bert/encoder/layer_12/ffn_layer_0/intermediate/dense/kernel", "attr": {"value": {"tensor": {"tensorShape": {"dim": [{"size": "128"}, {"size": "512"}]}, "dtype": "DT_FLOAT"}}, "dtype": {"type": "DT_FLOAT"}}}, {"op": "Const", "name": "bert/encoder/layer_12/ffn_layer_0/intermediate/dense/bias", "attr": {"value": {"tensor": {"tensorShape": {"dim": [{"size": "512"}]}, "dtype": "DT_FLOAT"}}, "dtype": {"type": "DT_FLOAT"}}}, {"op": "Const", "name": "bert/encoder/layer_12/attention/output/FakeLayerNorm/beta", "attr": {"value": {"tensor": {"tensorShape": {"dim": [{"size": "128"}]}, "dtype": "DT_FLOAT"}}, "dtype": {"type": "DT_FLOAT"}}}, {"op": "Const", "name": "bert/encoder/layer_12/attention/output/FakeLayerNorm/gamma", "attr": {"value": {"tensor": {"tensorShape": {"dim": [{"size": "128"}]}, "dtype": "DT_FLOAT"}}, "dtype": {"type": "DT_FLOAT"}}}, {"op": "Const", "name": "bert/encoder/layer_12/attention/output/dense/kernel", "attr": {"value": {"tensor": {"tensorShape": {"dim": [{"size": "128"}, {"size": "128"}]}, "dtype": "DT_FLOAT"}}, "dtype": {"type": "DT_FLOAT"}}}, {"op": "Const", "name": "bert/encoder/layer_12/attention/self/query/kernel", "attr": {"value": {"tensor": {"tensorShape": {"dim": [{"size": "128"}, {"size": "128"}]}, "dtype": "DT_FLOAT"}}, "dtype": {"type": "DT_FLOAT"}}}, {"op": "Const", "name": "bert/encoder/layer_12/attention/self/query/bias", "attr": {"value": {"tensor": {"tensorShape": {"dim": [{"size": "128"}]}, "dtype": "DT_FLOAT"}}, "dtype": {"type": "DT_FLOAT"}}}, {"op": "Const", "name": "bert/encoder/layer_12/attention/self/key/kernel", "attr": {"value": {"tensor": {"tensorShape": {"dim": [{"size": "128"}, {"size": "128"}]}, "dtype": "DT_FLOAT"}}, "dtype": {"type": "DT_FLOAT"}}}, {"op": "Const", "name": "bert/encoder/layer_12/attention/self/key/bias", "attr": {"value": {"tensor": {"tensorShape": {"dim": [{"size": "128"}]}, "dtype": "DT_FLOAT"}}, "dtype": {"type": "DT_FLOAT"}}}, {"op": "Const", "name": "bert/encoder/layer_12/bottleneck/attention/FakeLayerNorm/beta", "attr": {"value": {"tensor": {"tensorShape": {"dim": [{"size": "128"}]}, "dtype": "DT_FLOAT"}}, "dtype": {"type": "DT_FLOAT"}}}, {"op": "Const", "name": "bert/encoder/layer_12/bottleneck/attention/FakeLayerNorm/gamma", "attr": {"value": {"tensor": {"tensorShape": {"dim": [{"size": "128"}]}, "dtype": "DT_FLOAT"}}, "dtype": {"type": "DT_FLOAT"}}}, {"op": "Const", "name": "bert/encoder/layer_12/bottleneck/attention/dense/kernel", "attr": {"value": {"tensor": {"tensorShape": {"dim": [{"size": "512"}, {"size": "128"}]}, "dtype": "DT_FLOAT"}}, "dtype": {"type": "DT_FLOAT"}}}, {"op": "Const", "name": "bert/encoder/layer_12/bottleneck/attention/dense/bias", "attr": {"value": {"tensor": {"tensorShape": {"dim": [{"size": "128"}]}, "dtype": "DT_FLOAT"}}, "dtype": {"type": "DT_FLOAT"}}}, {"op": "Const", "name": "bert/encoder/layer_12/attention/self/value/kernel", "attr": {"value": {"tensor": {"tensorShape": {"dim": [{"size": "128"}, {"size": "128"}]}, "dtype": "DT_FLOAT"}}, "dtype": {"type": "DT_FLOAT"}}}, {"op": "Const", "name": "bert/encoder/layer_12/attention/self/value/bias", "attr": {"value": {"tensor": {"tensorShape": {"dim": [{"size": "128"}]}, "dtype": "DT_FLOAT"}}, "dtype": {"type": "DT_FLOAT"}}}, {"op": "Const", "name": "bert/encoder/layer_12/bottleneck/value/FakeLayerNorm/beta", "attr": {"value": {"tensor": {"tensorShape": {"dim": [{"size": "128"}]}, "dtype": "DT_FLOAT"}}, "dtype": {"type": "DT_FLOAT"}}}, {"op": "Const", "name": "bert/encoder/layer_12/bottleneck/value/FakeLayerNorm/gamma", "attr": {"value": {"tensor": {"tensorShape": {"dim": [{"size": "128"}]}, "dtype": "DT_FLOAT"}}, "dtype": {"type": "DT_FLOAT"}}}, {"op": "Const", "name": "bert/encoder/layer_12/bottleneck/value/dense/kernel", "attr": {"value": {"tensor": {"tensorShape": {"dim": [{"size": "512"}, {"size": "128"}]}, "dtype": "DT_FLOAT"}}, "dtype": {"type": "DT_FLOAT"}}}, {"op": "Const", "name": "bert/encoder/layer_12/bottleneck/value/dense/bias", "attr": {"value": {"tensor": {"tensorShape": {"dim": [{"size": "128"}]}, "dtype": "DT_FLOAT"}}, "dtype": {"type": "DT_FLOAT"}}}, {"op": "Const", "name": "bert/encoder/layer_12/attention/output/dense/bias", "attr": {"value": {"tensor": {"tensorShape": {"dim": [{"size": "128"}]}, "dtype": "DT_FLOAT"}}, "dtype": {"type": "DT_FLOAT"}}}, {"op": "Const", "name": "bert/encoder/layer_12/bottleneck/input/FakeLayerNorm/gamma", "attr": {"value": {"tensor": {"tensorShape": {"dim": [{"size": "128"}]}, "dtype": "DT_FLOAT"}}, "dtype": {"type": "DT_FLOAT"}}}, {"op": "Const", "name": "bert/encoder/layer_12/bottleneck/input/dense/kernel", "attr": {"value": {"tensor": {"tensorShape": {"dim": [{"size": "512"}, {"size": "128"}]}, "dtype": "DT_FLOAT"}}, "dtype": {"type": "DT_FLOAT"}}}, {"op": "Const", "name": "bert/encoder/layer_12/bottleneck/input/dense/bias", "attr": {"value": {"tensor": {"tensorShape": {"dim": [{"size": "128"}]}, "dtype": "DT_FLOAT"}}, "dtype": {"type": "DT_FLOAT"}}}, {"op": "Const", "name": "bert/encoder/layer_11/output/bottleneck/FakeLayerNorm/beta", "attr": {"value": {"tensor": {"tensorShape": {"dim": [{"size": "512"}]}, "dtype": "DT_FLOAT"}}, "dtype": {"type": "DT_FLOAT"}}}, {"op": "Const", "name": "bert/encoder/layer_11/output/bottleneck/FakeLayerNorm/gamma", "attr": {"value": {"tensor": {"tensorShape": {"dim": [{"size": "512"}]}, "dtype": "DT_FLOAT"}}, "dtype": {"type": "DT_FLOAT"}}}, {"op": "Const", "name": "bert/encoder/layer_11/output/bottleneck/dense/kernel", "attr": {"value": {"tensor": {"tensorShape": {"dim": [{"size": "128"}, {"size": "512"}]}, "dtype": "DT_FLOAT"}}, "dtype": {"type": "DT_FLOAT"}}}, {"op": "Const", "name": "bert/encoder/layer_11/output/bottleneck/dense/bias", "attr": {"value": {"tensor": {"tensorShape": {"dim": [{"size": "512"}]}, "dtype": "DT_FLOAT"}}, "dtype": {"type": "DT_FLOAT"}}}, {"op": "Const", "name": "bert/encoder/layer_11/output/FakeLayerNorm/beta", "attr": {"value": {"tensor": {"tensorShape": {"dim": [{"size": "128"}]}, "dtype": "DT_FLOAT"}}, "dtype": {"type": "DT_FLOAT"}}}, {"op": "Const", "name": "bert/encoder/layer_11/output/FakeLayerNorm/gamma", "attr": {"value": {"tensor": {"tensorShape": {"dim": [{"size": "128"}]}, "dtype": "DT_FLOAT"}}, "dtype": {"type": "DT_FLOAT"}}}, {"op": "Const", "name": "bert/encoder/layer_11/output/dense/kernel", "attr": {"value": {"tensor": {"tensorShape": {"dim": [{"size": "512"}, {"size": "128"}]}, "dtype": "DT_FLOAT"}}, "dtype": {"type": "DT_FLOAT"}}}, {"op": "Const", "name": "bert/encoder/layer_11/output/dense/bias", "attr": {"value": {"tensor": {"tensorShape": {"dim": [{"size": "128"}]}, "dtype": "DT_FLOAT"}}, "dtype": {"type": "DT_FLOAT"}}}, {"op": "Const", "name": "bert/encoder/layer_11/intermediate/dense/kernel", "attr": {"value": {"tensor": {"tensorShape": {"dim": [{"size": "128"}, {"size": "512"}]}, "dtype": "DT_FLOAT"}}, "dtype": {"type": "DT_FLOAT"}}}, {"op": "Const", "name": "bert/encoder/layer_11/intermediate/dense/bias", "attr": {"value": {"tensor": {"tensorShape": {"dim": [{"size": "512"}]}, "dtype": "DT_FLOAT"}}, "dtype": {"type": "DT_FLOAT"}}}, {"op": "Const", "name": "bert/encoder/layer_11/ffn_layer_2/output/FakeLayerNorm/beta", "attr": {"value": {"tensor": {"tensorShape": {"dim": [{"size": "128"}]}, "dtype": "DT_FLOAT"}}, "dtype": {"type": "DT_FLOAT"}}}, {"op": "Const", "name": "bert/encoder/layer_11/ffn_layer_2/output/FakeLayerNorm/gamma", "attr": {"value": {"tensor": {"tensorShape": {"dim": [{"size": "128"}]}, "dtype": "DT_FLOAT"}}, "dtype": {"type": "DT_FLOAT"}}}, {"op": "Const", "name": "bert/encoder/layer_11/ffn_layer_2/output/dense/kernel", "attr": {"value": {"tensor": {"tensorShape": {"dim": [{"size": "512"}, {"size": "128"}]}, "dtype": "DT_FLOAT"}}, "dtype": {"type": "DT_FLOAT"}}}, {"op": "Const", "name": "bert/encoder/layer_11/ffn_layer_2/output/dense/bias", "attr": {"value": {"tensor": {"tensorShape": {"dim": [{"size": "128"}]}, "dtype": "DT_FLOAT"}}, "dtype": {"type": "DT_FLOAT"}}}, {"op": "Const", "name": "bert/encoder/layer_11/ffn_layer_2/intermediate/dense/kernel", "attr": {"value": {"tensor": {"tensorShape": {"dim": [{"size": "128"}, {"size": "512"}]}, "dtype": "DT_FLOAT"}}, "dtype": {"type": "DT_FLOAT"}}}, {"op": "Const", "name": "bert/encoder/layer_11/ffn_layer_2/intermediate/dense/bias", "attr": {"value": {"tensor": {"tensorShape": {"dim": [{"size": "512"}]}, "dtype": "DT_FLOAT"}}, "dtype": {"type": "DT_FLOAT"}}}, {"op": "Const", "name": "bert/encoder/layer_11/ffn_layer_1/output/FakeLayerNorm/beta", "attr": {"value": {"tensor": {"tensorShape": {"dim": [{"size": "128"}]}, "dtype": "DT_FLOAT"}}, "dtype": {"type": "DT_FLOAT"}}}, {"op": "Const", "name": "bert/encoder/layer_11/ffn_layer_1/output/FakeLayerNorm/gamma", "attr": {"value": {"tensor": {"tensorShape": {"dim": [{"size": "128"}]}, "dtype": "DT_FLOAT"}}, "dtype": {"type": "DT_FLOAT"}}}, {"op": "Const", "name": "bert/encoder/layer_11/ffn_layer_1/output/dense/kernel", "attr": {"value": {"tensor": {"tensorShape": {"dim": [{"size": "512"}, {"size": "128"}]}, "dtype": "DT_FLOAT"}}, "dtype": {"type": "DT_FLOAT"}}}, {"op": "Const", "name": "bert/encoder/layer_11/ffn_layer_1/output/dense/bias", "attr": {"value": {"tensor": {"tensorShape": {"dim": [{"size": "128"}]}, "dtype": "DT_FLOAT"}}, "dtype": {"type": "DT_FLOAT"}}}, {"op": "Const", "name": "bert/encoder/layer_11/ffn_layer_1/intermediate/dense/kernel", "attr": {"value": {"tensor": {"tensorShape": {"dim": [{"size": "128"}, {"size": "512"}]}, "dtype": "DT_FLOAT"}}, "dtype": {"type": "DT_FLOAT"}}}, {"op": "Const", "name": "bert/encoder/layer_11/ffn_layer_1/intermediate/dense/bias", "attr": {"value": {"tensor": {"tensorShape": {"dim": [{"size": "512"}]}, "dtype": "DT_FLOAT"}}, "dtype": {"type": "DT_FLOAT"}}}, {"op": "Const", "name": "bert/encoder/layer_11/ffn_layer_0/output/FakeLayerNorm/beta", "attr": {"value": {"tensor": {"tensorShape": {"dim": [{"size": "128"}]}, "dtype": "DT_FLOAT"}}, "dtype": {"type": "DT_FLOAT"}}}, {"op": "Const", "name": "bert/encoder/layer_11/ffn_layer_0/output/FakeLayerNorm/gamma", "attr": {"value": {"tensor": {"tensorShape": {"dim": [{"size": "128"}]}, "dtype": "DT_FLOAT"}}, "dtype": {"type": "DT_FLOAT"}}}, {"op": "Const", "name": "bert/encoder/layer_11/ffn_layer_0/output/dense/kernel", "attr": {"value": {"tensor": {"tensorShape": {"dim": [{"size": "512"}, {"size": "128"}]}, "dtype": "DT_FLOAT"}}, "dtype": {"type": "DT_FLOAT"}}}, {"op": "Const", "name": "bert/encoder/layer_11/ffn_layer_0/output/dense/bias", "attr": {"value": {"tensor": {"tensorShape": {"dim": [{"size": "128"}]}, "dtype": "DT_FLOAT"}}, "dtype": {"type": "DT_FLOAT"}}}, {"op": "Const", "name": "bert/encoder/layer_11/ffn_layer_0/intermediate/dense/kernel", "attr": {"value": {"tensor": {"tensorShape": {"dim": [{"size": "128"}, {"size": "512"}]}, "dtype": "DT_FLOAT"}}, "dtype": {"type": "DT_FLOAT"}}}, {"op": "Const", "name": "bert/encoder/layer_11/ffn_layer_0/intermediate/dense/bias", "attr": {"value": {"tensor": {"tensorShape": {"dim": [{"size": "512"}]}, "dtype": "DT_FLOAT"}}, "dtype": {"type": "DT_FLOAT"}}}, {"op": "Const", "name": "bert/encoder/layer_11/attention/output/FakeLayerNorm/beta", "attr": {"value": {"tensor": {"tensorShape": {"dim": [{"size": "128"}]}, "dtype": "DT_FLOAT"}}, "dtype": {"type": "DT_FLOAT"}}}, {"op": "Const", "name": "bert/encoder/layer_11/attention/output/FakeLayerNorm/gamma", "attr": {"value": {"tensor": {"tensorShape": {"dim": [{"size": "128"}]}, "dtype": "DT_FLOAT"}}, "dtype": {"type": "DT_FLOAT"}}}, {"op": "Const", "name": "bert/encoder/layer_11/attention/output/dense/kernel", "attr": {"value": {"tensor": {"tensorShape": {"dim": [{"size": "128"}, {"size": "128"}]}, "dtype": "DT_FLOAT"}}, "dtype": {"type": "DT_FLOAT"}}}, {"op": "Const", "name": "bert/encoder/layer_11/attention/self/query/kernel", "attr": {"value": {"tensor": {"tensorShape": {"dim": [{"size": "128"}, {"size": "128"}]}, "dtype": "DT_FLOAT"}}, "dtype": {"type": "DT_FLOAT"}}}, {"op": "Const", "name": "bert/encoder/layer_11/attention/self/query/bias", "attr": {"value": {"tensor": {"tensorShape": {"dim": [{"size": "128"}]}, "dtype": "DT_FLOAT"}}, "dtype": {"type": "DT_FLOAT"}}}, {"op": "Const", "name": "bert/encoder/layer_11/attention/self/key/kernel", "attr": {"value": {"tensor": {"tensorShape": {"dim": [{"size": "128"}, {"size": "128"}]}, "dtype": "DT_FLOAT"}}, "dtype": {"type": "DT_FLOAT"}}}, {"op": "Const", "name": "bert/encoder/layer_11/attention/self/key/bias", "attr": {"value": {"tensor": {"tensorShape": {"dim": [{"size": "128"}]}, "dtype": "DT_FLOAT"}}, "dtype": {"type": "DT_FLOAT"}}}, {"op": "Const", "name": "bert/encoder/layer_11/bottleneck/attention/FakeLayerNorm/beta", "attr": {"value": {"tensor": {"tensorShape": {"dim": [{"size": "128"}]}, "dtype": "DT_FLOAT"}}, "dtype": {"type": "DT_FLOAT"}}}, {"op": "Const", "name": "bert/encoder/layer_11/bottleneck/attention/FakeLayerNorm/gamma", "attr": {"value": {"tensor": {"tensorShape": {"dim": [{"size": "128"}]}, "dtype": "DT_FLOAT"}}, "dtype": {"type": "DT_FLOAT"}}}, {"op": "Const", "name": "bert/encoder/layer_11/bottleneck/attention/dense/kernel", "attr": {"value": {"tensor": {"tensorShape": {"dim": [{"size": "512"}, {"size": "128"}]}, "dtype": "DT_FLOAT"}}, "dtype": {"type": "DT_FLOAT"}}}, {"op": "Const", "name": "bert/encoder/layer_11/bottleneck/attention/dense/bias", "attr": {"value": {"tensor": {"tensorShape": {"dim": [{"size": "128"}]}, "dtype": "DT_FLOAT"}}, "dtype": {"type": "DT_FLOAT"}}}, {"op": "Const", "name": "bert/encoder/layer_11/attention/self/value/kernel", "attr": {"value": {"tensor": {"tensorShape": {"dim": [{"size": "128"}, {"size": "128"}]}, "dtype": "DT_FLOAT"}}, "dtype": {"type": "DT_FLOAT"}}}, {"op": "Const", "name": "bert/encoder/layer_11/attention/self/value/bias", "attr": {"value": {"tensor": {"tensorShape": {"dim": [{"size": "128"}]}, "dtype": "DT_FLOAT"}}, "dtype": {"type": "DT_FLOAT"}}}, {"op": "Const", "name": "bert/encoder/layer_11/bottleneck/value/FakeLayerNorm/beta", "attr": {"value": {"tensor": {"tensorShape": {"dim": [{"size": "128"}]}, "dtype": "DT_FLOAT"}}, "dtype": {"type": "DT_FLOAT"}}}, {"op": "Const", "name": "bert/encoder/layer_11/bottleneck/value/FakeLayerNorm/gamma", "attr": {"value": {"tensor": {"tensorShape": {"dim": [{"size": "128"}]}, "dtype": "DT_FLOAT"}}, "dtype": {"type": "DT_FLOAT"}}}, {"op": "Const", "name": "bert/encoder/layer_11/bottleneck/value/dense/kernel", "attr": {"value": {"tensor": {"tensorShape": {"dim": [{"size": "512"}, {"size": "128"}]}, "dtype": "DT_FLOAT"}}, "dtype": {"type": "DT_FLOAT"}}}, {"op": "Const", "name": "bert/encoder/layer_11/bottleneck/value/dense/bias", "attr": {"value": {"tensor": {"tensorShape": {"dim": [{"size": "128"}]}, "dtype": "DT_FLOAT"}}, "dtype": {"type": "DT_FLOAT"}}}, {"op": "Const", "name": "bert/encoder/layer_11/attention/output/dense/bias", "attr": {"value": {"tensor": {"tensorShape": {"dim": [{"size": "128"}]}, "dtype": "DT_FLOAT"}}, "dtype": {"type": "DT_FLOAT"}}}, {"op": "Const", "name": "bert/encoder/layer_11/bottleneck/input/FakeLayerNorm/gamma", "attr": {"value": {"tensor": {"tensorShape": {"dim": [{"size": "128"}]}, "dtype": "DT_FLOAT"}}, "dtype": {"type": "DT_FLOAT"}}}, {"op": "Const", "name": "bert/encoder/layer_11/bottleneck/input/dense/kernel", "attr": {"value": {"tensor": {"tensorShape": {"dim": [{"size": "512"}, {"size": "128"}]}, "dtype": "DT_FLOAT"}}, "dtype": {"type": "DT_FLOAT"}}}, {"op": "Const", "name": "bert/encoder/layer_11/bottleneck/input/dense/bias", "attr": {"value": {"tensor": {"tensorShape": {"dim": [{"size": "128"}]}, "dtype": "DT_FLOAT"}}, "dtype": {"type": "DT_FLOAT"}}}, {"op": "Const", "name": "bert/encoder/layer_10/output/bottleneck/FakeLayerNorm/beta", "attr": {"value": {"tensor": {"tensorShape": {"dim": [{"size": "512"}]}, "dtype": "DT_FLOAT"}}, "dtype": {"type": "DT_FLOAT"}}}, {"op": "Const", "name": "bert/encoder/layer_10/output/bottleneck/FakeLayerNorm/gamma", "attr": {"value": {"tensor": {"tensorShape": {"dim": [{"size": "512"}]}, "dtype": "DT_FLOAT"}}, "dtype": {"type": "DT_FLOAT"}}}, {"op": "Const", "name": "bert/encoder/layer_10/output/bottleneck/dense/kernel", "attr": {"value": {"tensor": {"tensorShape": {"dim": [{"size": "128"}, {"size": "512"}]}, "dtype": "DT_FLOAT"}}, "dtype": {"type": "DT_FLOAT"}}}, {"op": "Const", "name": "bert/encoder/layer_10/output/bottleneck/dense/bias", "attr": {"value": {"tensor": {"tensorShape": {"dim": [{"size": "512"}]}, "dtype": "DT_FLOAT"}}, "dtype": {"type": "DT_FLOAT"}}}, {"op": "Const", "name": "bert/encoder/layer_10/output/FakeLayerNorm/beta", "attr": {"value": {"tensor": {"tensorShape": {"dim": [{"size": "128"}]}, "dtype": "DT_FLOAT"}}, "dtype": {"type": "DT_FLOAT"}}}, {"op": "Const", "name": "bert/encoder/layer_10/output/FakeLayerNorm/gamma", "attr": {"value": {"tensor": {"tensorShape": {"dim": [{"size": "128"}]}, "dtype": "DT_FLOAT"}}, "dtype": {"type": "DT_FLOAT"}}}, {"op": "Const", "name": "bert/encoder/layer_10/output/dense/kernel", "attr": {"value": {"tensor": {"tensorShape": {"dim": [{"size": "512"}, {"size": "128"}]}, "dtype": "DT_FLOAT"}}, "dtype": {"type": "DT_FLOAT"}}}, {"op": "Const", "name": "bert/encoder/layer_10/output/dense/bias", "attr": {"value": {"tensor": {"tensorShape": {"dim": [{"size": "128"}]}, "dtype": "DT_FLOAT"}}, "dtype": {"type": "DT_FLOAT"}}}, {"op": "Const", "name": "bert/encoder/layer_10/intermediate/dense/kernel", "attr": {"value": {"tensor": {"tensorShape": {"dim": [{"size": "128"}, {"size": "512"}]}, "dtype": "DT_FLOAT"}}, "dtype": {"type": "DT_FLOAT"}}}, {"op": "Const", "name": "bert/encoder/layer_10/intermediate/dense/bias", "attr": {"value": {"tensor": {"tensorShape": {"dim": [{"size": "512"}]}, "dtype": "DT_FLOAT"}}, "dtype": {"type": "DT_FLOAT"}}}, {"op": "Const", "name": "bert/encoder/layer_10/ffn_layer_2/output/FakeLayerNorm/beta", "attr": {"value": {"tensor": {"tensorShape": {"dim": [{"size": "128"}]}, "dtype": "DT_FLOAT"}}, "dtype": {"type": "DT_FLOAT"}}}, {"op": "Const", "name": "bert/encoder/layer_10/ffn_layer_2/output/FakeLayerNorm/gamma", "attr": {"value": {"tensor": {"tensorShape": {"dim": [{"size": "128"}]}, "dtype": "DT_FLOAT"}}, "dtype": {"type": "DT_FLOAT"}}}, {"op": "Const", "name": "bert/encoder/layer_10/ffn_layer_2/output/dense/kernel", "attr": {"value": {"tensor": {"tensorShape": {"dim": [{"size": "512"}, {"size": "128"}]}, "dtype": "DT_FLOAT"}}, "dtype": {"type": "DT_FLOAT"}}}, {"op": "Const", "name": "bert/encoder/layer_10/ffn_layer_2/output/dense/bias", "attr": {"value": {"tensor": {"tensorShape": {"dim": [{"size": "128"}]}, "dtype": "DT_FLOAT"}}, "dtype": {"type": "DT_FLOAT"}}}, {"op": "Const", "name": "bert/encoder/layer_10/ffn_layer_2/intermediate/dense/kernel", "attr": {"value": {"tensor": {"tensorShape": {"dim": [{"size": "128"}, {"size": "512"}]}, "dtype": "DT_FLOAT"}}, "dtype": {"type": "DT_FLOAT"}}}, {"op": "Const", "name": "bert/encoder/layer_10/ffn_layer_2/intermediate/dense/bias", "attr": {"value": {"tensor": {"tensorShape": {"dim": [{"size": "512"}]}, "dtype": "DT_FLOAT"}}, "dtype": {"type": "DT_FLOAT"}}}, {"op": "Const", "name": "bert/encoder/layer_10/ffn_layer_1/output/FakeLayerNorm/beta", "attr": {"value": {"tensor": {"tensorShape": {"dim": [{"size": "128"}]}, "dtype": "DT_FLOAT"}}, "dtype": {"type": "DT_FLOAT"}}}, {"op": "Const", "name": "bert/encoder/layer_10/ffn_layer_1/output/FakeLayerNorm/gamma", "attr": {"value": {"tensor": {"tensorShape": {"dim": [{"size": "128"}]}, "dtype": "DT_FLOAT"}}, "dtype": {"type": "DT_FLOAT"}}}, {"op": "Const", "name": "bert/encoder/layer_10/ffn_layer_1/output/dense/kernel", "attr": {"value": {"tensor": {"tensorShape": {"dim": [{"size": "512"}, {"size": "128"}]}, "dtype": "DT_FLOAT"}}, "dtype": {"type": "DT_FLOAT"}}}, {"op": "Const", "name": "bert/encoder/layer_10/ffn_layer_1/output/dense/bias", "attr": {"value": {"tensor": {"tensorShape": {"dim": [{"size": "128"}]}, "dtype": "DT_FLOAT"}}, "dtype": {"type": "DT_FLOAT"}}}, {"op": "Const", "name": "bert/encoder/layer_10/ffn_layer_1/intermediate/dense/kernel", "attr": {"value": {"tensor": {"tensorShape": {"dim": [{"size": "128"}, {"size": "512"}]}, "dtype": "DT_FLOAT"}}, "dtype": {"type": "DT_FLOAT"}}}, {"op": "Const", "name": "bert/encoder/layer_10/ffn_layer_1/intermediate/dense/bias", "attr": {"value": {"tensor": {"tensorShape": {"dim": [{"size": "512"}]}, "dtype": "DT_FLOAT"}}, "dtype": {"type": "DT_FLOAT"}}}, {"op": "Const", "name": "bert/encoder/layer_10/ffn_layer_0/output/FakeLayerNorm/beta", "attr": {"value": {"tensor": {"tensorShape": {"dim": [{"size": "128"}]}, "dtype": "DT_FLOAT"}}, "dtype": {"type": "DT_FLOAT"}}}, {"op": "Const", "name": "bert/encoder/layer_10/ffn_layer_0/output/FakeLayerNorm/gamma", "attr": {"value": {"tensor": {"tensorShape": {"dim": [{"size": "128"}]}, "dtype": "DT_FLOAT"}}, "dtype": {"type": "DT_FLOAT"}}}, {"op": "Const", "name": "bert/encoder/layer_10/ffn_layer_0/output/dense/kernel", "attr": {"value": {"tensor": {"tensorShape": {"dim": [{"size": "512"}, {"size": "128"}]}, "dtype": "DT_FLOAT"}}, "dtype": {"type": "DT_FLOAT"}}}, {"op": "Const", "name": "bert/encoder/layer_10/ffn_layer_0/output/dense/bias", "attr": {"value": {"tensor": {"tensorShape": {"dim": [{"size": "128"}]}, "dtype": "DT_FLOAT"}}, "dtype": {"type": "DT_FLOAT"}}}, {"op": "Const", "name": "bert/encoder/layer_10/ffn_layer_0/intermediate/dense/kernel", "attr": {"value": {"tensor": {"tensorShape": {"dim": [{"size": "128"}, {"size": "512"}]}, "dtype": "DT_FLOAT"}}, "dtype": {"type": "DT_FLOAT"}}}, {"op": "Const", "name": "bert/encoder/layer_10/ffn_layer_0/intermediate/dense/bias", "attr": {"value": {"tensor": {"tensorShape": {"dim": [{"size": "512"}]}, "dtype": "DT_FLOAT"}}, "dtype": {"type": "DT_FLOAT"}}}, {"op": "Const", "name": "bert/encoder/layer_10/attention/output/FakeLayerNorm/beta", "attr": {"value": {"tensor": {"tensorShape": {"dim": [{"size": "128"}]}, "dtype": "DT_FLOAT"}}, "dtype": {"type": "DT_FLOAT"}}}, {"op": "Const", "name": "bert/encoder/layer_10/attention/output/FakeLayerNorm/gamma", "attr": {"value": {"tensor": {"tensorShape": {"dim": [{"size": "128"}]}, "dtype": "DT_FLOAT"}}, "dtype": {"type": "DT_FLOAT"}}}, {"op": "Const", "name": "bert/encoder/layer_10/attention/output/dense/kernel", "attr": {"value": {"tensor": {"tensorShape": {"dim": [{"size": "128"}, {"size": "128"}]}, "dtype": "DT_FLOAT"}}, "dtype": {"type": "DT_FLOAT"}}}, {"op": "Const", "name": "bert/encoder/layer_10/attention/self/query/kernel", "attr": {"value": {"tensor": {"tensorShape": {"dim": [{"size": "128"}, {"size": "128"}]}, "dtype": "DT_FLOAT"}}, "dtype": {"type": "DT_FLOAT"}}}, {"op": "Const", "name": "bert/encoder/layer_10/attention/self/query/bias", "attr": {"value": {"tensor": {"tensorShape": {"dim": [{"size": "128"}]}, "dtype": "DT_FLOAT"}}, "dtype": {"type": "DT_FLOAT"}}}, {"op": "Const", "name": "bert/encoder/layer_10/attention/self/key/kernel", "attr": {"value": {"tensor": {"tensorShape": {"dim": [{"size": "128"}, {"size": "128"}]}, "dtype": "DT_FLOAT"}}, "dtype": {"type": "DT_FLOAT"}}}, {"op": "Const", "name": "bert/encoder/layer_10/attention/self/key/bias", "attr": {"value": {"tensor": {"tensorShape": {"dim": [{"size": "128"}]}, "dtype": "DT_FLOAT"}}, "dtype": {"type": "DT_FLOAT"}}}, {"op": "Const", "name": "bert/encoder/layer_10/bottleneck/attention/FakeLayerNorm/beta", "attr": {"value": {"tensor": {"tensorShape": {"dim": [{"size": "128"}]}, "dtype": "DT_FLOAT"}}, "dtype": {"type": "DT_FLOAT"}}}, {"op": "Const", "name": "bert/encoder/layer_10/bottleneck/attention/FakeLayerNorm/gamma", "attr": {"value": {"tensor": {"tensorShape": {"dim": [{"size": "128"}]}, "dtype": "DT_FLOAT"}}, "dtype": {"type": "DT_FLOAT"}}}, {"op": "Const", "name": "bert/encoder/layer_10/bottleneck/attention/dense/kernel", "attr": {"value": {"tensor": {"tensorShape": {"dim": [{"size": "512"}, {"size": "128"}]}, "dtype": "DT_FLOAT"}}, "dtype": {"type": "DT_FLOAT"}}}, {"op": "Const", "name": "bert/encoder/layer_10/bottleneck/attention/dense/bias", "attr": {"value": {"tensor": {"tensorShape": {"dim": [{"size": "128"}]}, "dtype": "DT_FLOAT"}}, "dtype": {"type": "DT_FLOAT"}}}, {"op": "Const", "name": "bert/encoder/layer_10/attention/self/value/kernel", "attr": {"value": {"tensor": {"tensorShape": {"dim": [{"size": "128"}, {"size": "128"}]}, "dtype": "DT_FLOAT"}}, "dtype": {"type": "DT_FLOAT"}}}, {"op": "Const", "name": "bert/encoder/layer_10/attention/self/value/bias", "attr": {"value": {"tensor": {"tensorShape": {"dim": [{"size": "128"}]}, "dtype": "DT_FLOAT"}}, "dtype": {"type": "DT_FLOAT"}}}, {"op": "Const", "name": "bert/encoder/layer_10/bottleneck/value/FakeLayerNorm/beta", "attr": {"value": {"tensor": {"tensorShape": {"dim": [{"size": "128"}]}, "dtype": "DT_FLOAT"}}, "dtype": {"type": "DT_FLOAT"}}}, {"op": "Const", "name": "bert/encoder/layer_10/bottleneck/value/FakeLayerNorm/gamma", "attr": {"value": {"tensor": {"tensorShape": {"dim": [{"size": "128"}]}, "dtype": "DT_FLOAT"}}, "dtype": {"type": "DT_FLOAT"}}}, {"op": "Const", "name": "bert/encoder/layer_10/bottleneck/value/dense/kernel", "attr": {"value": {"tensor": {"tensorShape": {"dim": [{"size": "512"}, {"size": "128"}]}, "dtype": "DT_FLOAT"}}, "dtype": {"type": "DT_FLOAT"}}}, {"op": "Const", "name": "bert/encoder/layer_10/bottleneck/value/dense/bias", "attr": {"value": {"tensor": {"tensorShape": {"dim": [{"size": "128"}]}, "dtype": "DT_FLOAT"}}, "dtype": {"type": "DT_FLOAT"}}}, {"op": "Const", "name": "bert/encoder/layer_10/attention/output/dense/bias", "attr": {"value": {"tensor": {"tensorShape": {"dim": [{"size": "128"}]}, "dtype": "DT_FLOAT"}}, "dtype": {"type": "DT_FLOAT"}}}, {"op": "Const", "name": "bert/encoder/layer_10/bottleneck/input/FakeLayerNorm/gamma", "attr": {"value": {"tensor": {"tensorShape": {"dim": [{"size": "128"}]}, "dtype": "DT_FLOAT"}}, "dtype": {"type": "DT_FLOAT"}}}, {"op": "Const", "name": "bert/encoder/layer_10/bottleneck/input/dense/kernel", "attr": {"value": {"tensor": {"tensorShape": {"dim": [{"size": "512"}, {"size": "128"}]}, "dtype": "DT_FLOAT"}}, "dtype": {"type": "DT_FLOAT"}}}, {"op": "Const", "name": "bert/encoder/layer_10/bottleneck/input/dense/bias", "attr": {"value": {"tensor": {"tensorShape": {"dim": [{"size": "128"}]}, "dtype": "DT_FLOAT"}}, "dtype": {"type": "DT_FLOAT"}}}, {"op": "Const", "name": "bert/encoder/layer_9/output/bottleneck/FakeLayerNorm/beta", "attr": {"value": {"tensor": {"tensorShape": {"dim": [{"size": "512"}]}, "dtype": "DT_FLOAT"}}, "dtype": {"type": "DT_FLOAT"}}}, {"op": "Const", "name": "bert/encoder/layer_9/output/bottleneck/FakeLayerNorm/gamma", "attr": {"value": {"tensor": {"tensorShape": {"dim": [{"size": "512"}]}, "dtype": "DT_FLOAT"}}, "dtype": {"type": "DT_FLOAT"}}}, {"op": "Const", "name": "bert/encoder/layer_9/output/bottleneck/dense/kernel", "attr": {"value": {"tensor": {"tensorShape": {"dim": [{"size": "128"}, {"size": "512"}]}, "dtype": "DT_FLOAT"}}, "dtype": {"type": "DT_FLOAT"}}}, {"op": "Const", "name": "bert/encoder/layer_9/output/bottleneck/dense/bias", "attr": {"value": {"tensor": {"tensorShape": {"dim": [{"size": "512"}]}, "dtype": "DT_FLOAT"}}, "dtype": {"type": "DT_FLOAT"}}}, {"op": "Const", "name": "bert/encoder/layer_9/output/FakeLayerNorm/beta", "attr": {"value": {"tensor": {"tensorShape": {"dim": [{"size": "128"}]}, "dtype": "DT_FLOAT"}}, "dtype": {"type": "DT_FLOAT"}}}, {"op": "Const", "name": "bert/encoder/layer_9/output/FakeLayerNorm/gamma", "attr": {"value": {"tensor": {"tensorShape": {"dim": [{"size": "128"}]}, "dtype": "DT_FLOAT"}}, "dtype": {"type": "DT_FLOAT"}}}, {"op": "Const", "name": "bert/encoder/layer_9/output/dense/kernel", "attr": {"value": {"tensor": {"tensorShape": {"dim": [{"size": "512"}, {"size": "128"}]}, "dtype": "DT_FLOAT"}}, "dtype": {"type": "…
tention/self/value/kernel", "dtype": "float32"}, {"shape": [128], "name": "bert/encoder/layer_9/attention/self/value/bias", "dtype": "float32"}, {"shape": [128], "name": "bert/encoder/layer_9/bottleneck/value/FakeLayerNorm/beta", "dtype": "float32"}, {"shape": [128], "name": "bert/encoder/layer_9/bottleneck/value/FakeLayerNorm/gamma", "dtype": "float32"}, {"shape": [512, 128], "name": "bert/encoder/layer_9/bottleneck/value/dense/kernel", "dtype": "float32"}, {"shape": [128], "name": "bert/encoder/layer_9/bottleneck/value/dense/bias", "dtype": "float32"}, {"shape": [128], "name": "bert/encoder/layer_9/attention/output/dense/bias", "dtype": "float32"}, {"shape": [128], "name": "bert/encoder/layer_9/bottleneck/input/FakeLayerNorm/gamma", "dtype": "float32"}, {"shape": [512, 128], "name": "bert/encoder/layer_9/bottleneck/input/dense/kernel", "dtype": "float32"}, {"shape": [128], "name": "bert/encoder/layer_9/bottleneck/input/dense/bias", "dtype": "float32"}, {"shape": [512], "name": "bert/encoder/layer_8/output/bottleneck/FakeLayerNorm/beta", "dtype": "float32"}, {"shape": [512], "name": "bert/encoder/layer_8/output/bottleneck/FakeLayerNorm/gamma", "dtype": "float32"}, {"shape": [128, 512], "name": "bert/encoder/layer_8/output/bottleneck/dense/kernel", "dtype": "float32"}, {"shape": [512], "name": "bert/encoder/layer_8/output/bottleneck/dense/bias", "dtype": "float32"}, {"shape": [128], "name": "bert/encoder/layer_8/output/FakeLayerNorm/beta", "dtype": "float32"}, {"shape": [128], "name": "bert/encoder/layer_8/output/FakeLayerNorm/gamma", "dtype": "float32"}, {"shape": [512, 128], "name": "bert/encoder/layer_8/output/dense/kernel", "dtype": "float32"}, {"shape": [128], "name": "bert/encoder/layer_8/output/dense/bias", "dtype": "float32"}, {"shape": [128, 512], "name": "bert/encoder/layer_8/intermediate/dense/kernel", "dtype": "float32"}, {"shape": [512], "name": "bert/encoder/layer_8/intermediate/dense/bias", "dtype": "float32"}, {"shape": [128], "name": "bert/encoder/layer_8/ffn_layer_2/output/FakeLayerNorm/beta", "dtype": "float32"}, {"shape": [128], "name": "bert/encoder/layer_8/ffn_layer_2/output/FakeLayerNorm/gamma", "dtype": "float32"}, {"shape": [512, 128], "name": "bert/encoder/layer_8/ffn_layer_2/output/dense/kernel", "dtype": "float32"}, {"shape": [128], "name": "bert/encoder/layer_8/ffn_layer_2/output/dense/bias", "dtype": "float32"}, {"shape": [128, 512], "name": "bert/encoder/layer_8/ffn_layer_2/intermediate/dense/kernel", "dtype": "float32"}, {"shape": [512], "name": "bert/encoder/layer_8/ffn_layer_2/intermediate/dense/bias", "dtype": "float32"}, {"shape": [128], "name": "bert/encoder/layer_8/ffn_layer_1/output/FakeLayerNorm/beta", "dtype": "float32"}, {"shape": [128], "name": "bert/encoder/layer_8/ffn_layer_1/output/FakeLayerNorm/gamma", "dtype": "float32"}, {"shape": [512, 128], "name": "bert/encoder/layer_8/ffn_layer_1/output/dense/kernel", "dtype": "float32"}, {"shape": [128], "name": "bert/encoder/layer_8/ffn_layer_1/output/dense/bias", "dtype": "float32"}, {"shape": [128, 512], "name": "bert/encoder/layer_8/ffn_layer_1/intermediate/dense/kernel", "dtype": "float32"}, {"shape": [512], "name": "bert/encoder/layer_8/ffn_layer_1/intermediate/dense/bias", "dtype": "float32"}, {"shape": [128], "name": "bert/encoder/layer_8/ffn_layer_0/output/FakeLayerNorm/beta", "dtype": "float32"}, {"shape": [128], "name": "bert/encoder/layer_8/ffn_layer_0/output/FakeLayerNorm/gamma", "dtype": "float32"}, {"shape": [512, 128], "name": "bert/encoder/layer_8/ffn_layer_0/output/dense/kernel", "dtype": "float32"}, {"shape": [128], "name": "bert/encoder/layer_8/ffn_layer_0/output/dense/bias", "dtype": "float32"}, {"shape": [128, 512], "name": "bert/encoder/layer_8/ffn_layer_0/intermediate/dense/kernel", "dtype": "float32"}, {"shape": [512], "name": "bert/encoder/layer_8/ffn_layer_0/intermediate/dense/bias", "dtype": "float32"}, {"shape": [128], "name": "bert/encoder/layer_8/attention/output/FakeLayerNorm/beta", "dtype": "float32"}, {"shape": [128], "name": "bert/encoder/layer_8/attention/output/FakeLayerNorm/gamma", "dtype": "float32"}, {"shape": [128, 128], "name": "bert/encoder/layer_8/attention/output/dense/kernel", "dtype": "float32"}, {"shape": [128, 128], "name": "bert/encoder/layer_8/attention/self/query/kernel", "dtype": "float32"}, {"shape": [128], "name": "bert/encoder/layer_8/attention/self/query/bias", "dtype": "float32"}, {"shape": [128, 128], "name": "bert/encoder/layer_8/attention/self/key/kernel", "dtype": "float32"}, {"shape": [128], "name": "bert/encoder/layer_8/attention/self/key/bias", "dtype": "float32"}, {"shape": [128], "name": "bert/encoder/layer_8/bottleneck/attention/FakeLayerNorm/beta", "dtype": "float32"}, {"shape": [128], "name": "bert/encoder/layer_8/bottleneck/attention/FakeLayerNorm/gamma", "dtype": "float32"}, {"shape": [512, 128], "name": "bert/encoder/layer_8/bottleneck/attention/dense/kernel", "dtype": "float32"}, {"shape": [128], "name": "bert/encoder/layer_8/bottleneck/attention/dense/bias", "dtype": "float32"}, {"shape": [128, 128], "name": "bert/encoder/layer_8/attention/self/value/kernel", "dtype": "float32"}, {"shape": [128], "name": "bert/encoder/layer_8/attention/self/value/bias", "dtype": "float32"}, {"shape": [128], "name": "bert/encoder/layer_8/bottleneck/value/FakeLayerNorm/beta", "dtype": "float32"}, {"shape": [128], "name": "bert/encoder/layer_8/bottleneck/value/FakeLayerNorm/gamma", "dtype": "float32"}, {"shape": [512, 128], "name": "bert/encoder/layer_8/bottleneck/value/dense/kernel", "dtype": "float32"}, {"shape": [128], "name": "bert/encoder/layer_8/bottleneck/value/dense/bias", "dtype": "float32"}, {"shape": [128], "name": "bert/encoder/layer_8/attention/output/dense/bias", "dtype": "float32"}, {"shape": [128], "name": "bert/encoder/layer_8/bottleneck/input/FakeLayerNorm/gamma", "dtype": "float32"}, {"shape": [512, 128], "name": "bert/encoder/layer_8/bottleneck/input/dense/kernel", "dtype": "float32"}, {"shape": [128], "name": "bert/encoder/layer_8/bottleneck/input/dense/bias", "dtype": "float32"}, {"shape": [512], "name": "bert/encoder/layer_7/output/bottleneck/FakeLayerNorm/beta", "dtype": "float32"}, {"shape": [512], "name": "bert/encoder/layer_7/output/bottleneck/FakeLayerNorm/gamma", "dtype": "float32"}, {"shape": [128, 512], "name": "bert/encoder/layer_7/output/bottleneck/dense/kernel", "dtype": "float32"}, {"shape": [512], "name": "bert/encoder/layer_7/output/bottleneck/dense/bias", "dtype": "float32"}, {"shape": [128], "name": "bert/encoder/layer_7/output/FakeLayerNorm/beta", "dtype": "float32"}, {"shape": [128], "name": "bert/encoder/layer_7/output/FakeLayerNorm/gamma", "dtype": "float32"}, {"shape": [512, 128], "name": "bert/encoder/layer_7/output/dense/kernel", "dtype": "float32"}, {"shape": [128], "name": "bert/encoder/layer_7/output/dense/bias", "dtype": "float32"}, {"shape": [128, 512], "name": "bert/encoder/layer_7/intermediate/dense/kernel", "dtype": "float32"}, {"shape": [512], "name": "bert/encoder/layer_7/intermediate/dense/bias", "dtype": "float32"}, {"shape": [128], "name": "bert/encoder/layer_7/ffn_layer_2/output/FakeLayerNorm/beta", "dtype": "float32"}, {"shape": [128], "name": "bert/encoder/layer_7/ffn_layer_2/output/FakeLayerNorm/gamma", "dtype": "float32"}, {"shape": [512, 128], "name": "bert/encoder/layer_7/ffn_layer_2/output/dense/kernel", "dtype": "float32"}, {"shape": [128], "name": "bert/encoder/layer_7/ffn_layer_2/output/dense/bias", "dtype": "float32"}, {"shape": [128, 512], "name": "bert/encoder/layer_7/ffn_layer_2/intermediate/dense/kernel", "dtype": "float32"}, {"shape": [512], "name": "bert/encoder/layer_7/ffn_layer_2/intermediate/dense/bias", "dtype": "float32"}, {"shape": [128], "name": "bert/encoder/layer_7/ffn_layer_1/output/FakeLayerNorm/beta", "dtype": "float32"}, {"shape": [128], "name": "bert/encoder/layer_7/ffn_layer_1/output/FakeLayerNorm/gamma", "dtype": "float32"}, {"shape": [512, 128], "name": "bert/encoder/layer_7/ffn_layer_1/output/dense/kernel", "dtype": "float32"}, {"shape": [128], "name": "bert/encoder/layer_7/ffn_layer_1/output/dense/bias", "dtype": "float32"}, {"shape": [128, 512], "name": "bert/encoder/layer_7/ffn_layer_1/intermediate/dense/kernel", "dtype": "float32"}, {"shape": [512], "name": "bert/encoder/layer_7/ffn_layer_1/intermediate/dense/bias", "dtype": "float32"}, {"shape": [128], "name": "bert/encoder/layer_7/ffn_layer_0/output/FakeLayerNorm/beta", "dtype": "float32"}, {"shape": [128], "name": "bert/encoder/layer_7/ffn_layer_0/output/FakeLayerNorm/gamma", "dtype": "float32"}, {"shape": [512, 128], "name": "bert/encoder/layer_7/ffn_layer_0/output/dense/kernel", "dtype": "float32"}, {"shape": [128], "name": "bert/encoder/layer_7/ffn_layer_0/output/dense/bias", "dtype": "float32"}, {"shape": [128, 512], "name": "bert/encoder/layer_7/ffn_layer_0/intermediate/dense/kernel", "dtype": "float32"}, {"shape": [512], "name": "bert/encoder/layer_7/ffn_layer_0/intermediate/dense/bias", "dtype": "float32"}, {"shape": [128], "name": "bert/encoder/layer_7/attention/output/FakeLayerNorm/beta", "dtype": "float32"}, {"shape": [128], "name": "bert/encoder/layer_7/attention/output/FakeLayerNorm/gamma", "dtype": "float32"}, {"shape": [128, 128], "name": "bert/encoder/layer_7/attention/output/dense/kernel", "dtype": "float32"}, {"shape": [128, 128], "name": "bert/encoder/layer_7/attention/self/query/kernel", "dtype": "float32"}, {"shape": [128], "name": "bert/encoder/layer_7/attention/self/query/bias", "dtype": "float32"}, {"shape": [128, 128], "name": "bert/encoder/layer_7/attention/self/key/kernel", "dtype": "float32"}, {"shape": [128], "name": "bert/encoder/layer_7/attention/self/key/bias", "dtype": "float32"}, {"shape": [128], "name": "bert/encoder/layer_7/bottleneck/attention/FakeLayerNorm/beta", "dtype": "float32"}, {"shape": [128], "name": "bert/encoder/layer_7/bottleneck/attention/FakeLayerNorm/gamma", "dtype": "float32"}, {"shape": [512, 128], "name": "bert/encoder/layer_7/bottleneck/attention/dense/kernel", "dtype": "float32"}, {"shape": [128], "name": "bert/encoder/layer_7/bottleneck/attention/dense/bias", "dtype": "float32"}, {"shape": [128, 128], "name": "bert/encoder/layer_7/attention/self/value/kernel", "dtype": "float32"}, {"shape": [128], "name": "bert/encoder/layer_7/attention/self/value/bias", "dtype": "float32"}, {"shape": [128], "name": "bert/encoder/layer_7/bottleneck/value/FakeLayerNorm/beta", "dtype": "float32"}, {"shape": [128], "name": "bert/encoder/layer_7/bottleneck/value/FakeLayerNorm/gamma", "dtype": "float32"}, {"shape": [512, 128], "name": "bert/encoder/layer_7/bottleneck/value/dense/kernel", "dtype": "float32"}, {"shape": [128], "name": "bert/encoder/layer_7/bottleneck/value/dense/bias", "dtype": "float32"}, {"shape": [128], "name": "bert/encoder/layer_7/attention/output/dense/bias", "dtype": "float32"}, {"shape": [128], "name": "bert/encoder/layer_7/bottleneck/input/FakeLayerNorm/gamma", "dtype": "float32"}, {"shape": [512, 128], "name": "bert/encoder/layer_7/bottleneck/input/dense/kernel", "dtype": "float32"}, {"shape": [128], "name": "bert/encoder/layer_7/bottleneck/input/dense/bias", "dtype": "float32"}, {"shape": [512], "name": "bert/encoder/layer_6/output/bottleneck/FakeLayerNorm/beta", "dtype": "float32"}, {"shape": [512], "name": "bert/encoder/layer_6/output/bottleneck/FakeLayerNorm/gamma", "dtype": "float32"}, {"shape": [128, 512], "name": "bert/encoder/layer_6/output/bottleneck/dense/kernel", "dtype": "float32"}, {"shape": [512], "name": "bert/encoder/layer_6/output/bottleneck/dense/bias", "dtype": "float32"}, {"shape": [128], "name": "bert/encoder/layer_6/output/FakeLayerNorm/beta", "dtype": "float32"}, {"shape": [128], "name": "bert/encoder/layer_6/output/FakeLayerNorm/gamma", "dtype": "float32"}, {"shape": [512, 128], "name": "bert/encoder/layer_6/output/dense/kernel", "dtype": "float32"}, {"shape": [128], "name": "bert/encoder/layer_6/output/dense/bias", "dtype": "float32"}, {"shape": [128, 512], "name": "bert/encoder/layer_6/intermediate/dense/kernel", "dtype": "float32"}, {"shape": [512], "name": "bert/encoder/layer_6/intermediate/dense/bias", "dtype": "float32"}, {"shape": [128], "name": "bert/encoder/layer_6/ffn_layer_2/output/FakeLayerNorm/beta", "dtype": "float32"}, {"shape": [128], "name": "bert/encoder/layer_6/ffn_layer_2/output/FakeLayerNorm/gamma", "dtype": "float32"}, {"shape": [512, 128], "name": "bert/encoder/layer_6/ffn_layer_2/output/dense/kernel", "dtype": "float32"}, {"shape": [128], "name": "bert/encoder/layer_6/ffn_layer_2/output/dense/bias", "dtype": "float32"}, {"shape": [128, 512], "name": "bert/encoder/layer_6/ffn_layer_2/intermediate/dense/kernel", "dtype": "float32"}, {"shape": [512], "name": "bert/encoder/layer_6/ffn_layer_2/intermediate/dense/bias", "dtype": "float32"}, {"shape": [128], "name": "bert/encoder/layer_6/ffn_layer_1/output/FakeLayerNorm/beta", "dtype": "float32"}, {"shape": [128], "name": "bert/encoder/layer_6/ffn_layer_1/output/FakeLayerNorm/gamma", "dtype": "float32"}, {"shape": [512, 128], "name": "bert/encoder/layer_6/ffn_layer_1/output/dense/kernel", "dtype": "float32"}, {"shape": [128], "name": "bert/encoder/layer_6/ffn_layer_1/output/dense/bias", "dtype": "float32"}, {"shape": [128, 512], "name": "bert/encoder/layer_6/ffn_layer_1/intermediate/dense/kernel", "dtype": "float32"}, {"shape": [512], "name": "bert/encoder/layer_6/ffn_layer_1/intermediate/dense/bias", "dtype": "float32"}, {"shape": [128], "name": "bert/encoder/layer_6/ffn_layer_0/output/FakeLayerNorm/beta", "dtype": "float32"}, {"shape": [128], "name": "bert/encoder/layer_6/ffn_layer_0/output/FakeLayerNorm/gamma", "dtype": "float32"}, {"shape": [512, 128], "name": "bert/encoder/layer_6/ffn_layer_0/output/dense/kernel", "dtype": "float32"}, {"shape": [128], "name": "bert/encoder/layer_6/ffn_layer_0/output/dense/bias", "dtype": "float32"}, {"shape": [128, 512], "name": "bert/encoder/layer_6/ffn_layer_0/intermediate/dense/kernel", "dtype": "float32"}, {"shape": [512], "name": "bert/encoder/layer_6/ffn_layer_0/intermediate/dense/bias", "dtype": "float32"}, {"shape": [128], "name": "bert/encoder/layer_6/attention/output/FakeLayerNorm/beta", "dtype": "float32"}, {"shape": [128], "name": "bert/encoder/layer_6/attention/output/FakeLayerNorm/gamma", "dtype": "float32"}, {"shape": [128, 128], "name": "bert/encoder/layer_6/attention/output/dense/kernel", "dtype": "float32"}, {"shape": [128, 128], "name": "bert/encoder/layer_6/attention/self/query/kernel", "dtype": "float32"}, {"shape": [128], "name": "bert/encoder/layer_6/attention/self/query/bias", "dtype": "float32"}, {"shape": [128, 128], "name": "bert/encoder/layer_6/attention/self/key/kernel", "dtype": "float32"}, {"shape": [128], "name": "bert/encoder/layer_6/attention/self/key/bias", "dtype": "float32"}, {"shape": [128], "name": "bert/encoder/layer_6/bottleneck/attention/FakeLayerNorm/beta", "dtype": "float32"}, {"shape": [128], "name": "bert/encoder/layer_6/bottleneck/attention/FakeLayerNorm/gamma", "dtype": "float32"}, {"shape": [512, 128], "name": "bert/encoder/layer_6/bottleneck/attention/dense/kernel", "dtype": "float32"}, {"shape": [128], "name": "bert/encoder/layer_6/bottleneck/attention/dense/bias", "dtype": "float32"}, {"shape": [128, 128], "name": "bert/encoder/layer_6/attention/self/value/kernel", "dtype": "float32"}, {"shape": [128], "name": "bert/encoder/layer_6/attention/self/value/bias", "dtype": "float32"}, {"shape": [128], "name": "bert/encoder/layer_6/bottleneck/value/FakeLayerNorm/beta", "dtype": "float32"}, {"shape": [128], "name": "bert/encoder/layer_6/bottleneck/value/FakeLayerNorm/gamma", "dtype": "float32"}, {"shape": [512, 128], "name": "bert/encoder/layer_6/bottleneck/value/dense/kernel", "dtype": "float32"}, {"shape": [128], "name": "bert/encoder/layer_6/bottleneck/value/dense/bias", "dtype": "float32"}, {"shape": [128], "name": "bert/encoder/layer_6/attention/output/dense/bias", "dtype": "float32"}, {"shape": [128], "name": "bert/encoder/layer_6/bottleneck/input/FakeLayerNorm/gamma", "dtype": "float32"}, {"shape": [512, 128], "name": "bert/encoder/layer_6/bottleneck/input/dense/kernel", "dtype": "float32"}, {"shape": [128], "name": "bert/encoder/layer_6/bottleneck/input/dense/bias", "dtype": "float32"}, {"shape": [512], "name": "bert/encoder/layer_5/output/bottleneck/FakeLayerNorm/beta", "dtype": "float32"}, {"shape": [512], "name": "bert/encoder/layer_5/output/bottleneck/FakeLayerNorm/gamma", "dtype": "float32"}, {"shape": [128, 512], "name": "bert/encoder/layer_5/output/bottleneck/dense/kernel", "dtype": "float32"}, {"shape": [512], "name": "bert/encoder/layer_5/output/bottleneck/dense/bias", "dtype": "float32"}, {"shape": [128], "name": "bert/encoder/layer_5/output/FakeLayerNorm/beta", "dtype": "float32"}, {"shape": [128], "name": "bert/encoder/layer_5/output/FakeLayerNorm/gamma", "dtype": "float32"}, {"shape": [512, 128], "name": "bert/encoder/layer_5/output/dense/kernel", "dtype": "float32"}, {"shape": [128], "name": "bert/encoder/layer_5/output/dense/bias", "dtype": "float32"}, {"shape": [128, 512], "name": "bert/encoder/layer_5/intermediate/dense/kernel", "dtype": "float32"}, {"shape": [512], "name": "bert/encoder/layer_5/intermediate/dense/bias", "dtype": "float32"}, {"shape": [128], "name": "bert/encoder/layer_5/ffn_layer_2/output/FakeLayerNorm/beta", "dtype": "float32"}, {"shape": [128], "name": "bert/encoder/layer_5/ffn_layer_2/output/FakeLayerNorm/gamma", "dtype": "float32"}, {"shape": [512, 128], "name": "bert/encoder/layer_5/ffn_layer_2/output/dense/kernel", "dtype": "float32"}, {"shape": [128], "name": "bert/encoder/layer_5/ffn_layer_2/output/dense/bias", "dtype": "float32"}, {"shape": [128, 512], "name": "bert/encoder/layer_5/ffn_layer_2/intermediate/dense/kernel", "dtype": "float32"}, {"shape": [512], "name": "bert/encoder/layer_5/ffn_layer_2/intermediate/dense/bias", "dtype": "float32"}, {"shape": [128], "name": "bert/encoder/layer_5/ffn_layer_1/output/FakeLayerNorm/beta", "dtype": "float32"}, {"shape": [128], "name": "bert/encoder/layer_5/ffn_layer_1/output/FakeLayerNorm/gamma", "dtype": "float32"}, {"shape": [512, 128], "name": "bert/encoder/layer_5/ffn_layer_1/output/dense/kernel", "dtype": "float32"}, {"shape": [128], "name": "bert/encoder/layer_5/ffn_layer_1/output/dense/bias", "dtype": "float32"}, {"shape": [128, 512], "name": "bert/encoder/layer_5/ffn_layer_1/intermediate/dense/kernel", "dtype": "float32"}, {"shape": [512], "name": "bert/encoder/layer_5/ffn_layer_1/intermediate/dense/bias", "dtype": "float32"}, {"shape": [128], "name": "bert/encoder/layer_5/ffn_layer_0/output/FakeLayerNorm/beta", "dtype": "float32"}, {"shape": [128], "name": "bert/encoder/layer_5/ffn_layer_0/output/FakeLayerNorm/gamma", "dtype": "float32"}, {"shape": [512, 128], "name": "bert/encoder/layer_5/ffn_layer_0/output/dense/kernel", "dtype": "float32"}, {"shape": [128], "name": "bert/encoder/layer_5/ffn_layer_0/output/dense/bias", "dtype": "float32"}, {"shape": [128, 512], "name": "bert/encoder/layer_5/ffn_layer_0/intermediate/dense/kernel", "dtype": "float32"}, {"shape": [512], "name": "bert/encoder/layer_5/ffn_layer_0/intermediate/dense/bias", "dtype": "float32"}, {"shape": [128], "name": "bert/encoder/layer_5/attention/output/FakeLayerNorm/beta", "dtype": "float32"}, {"shape": [128], "name": "bert/encoder/layer_5/attention/output/FakeLayerNorm/gamma", "dtype": "float32"}, {"shape": [128, 128], "name": "bert/encoder/layer_5/attention/output/dense/kernel", "dtype": "float32"}, {"shape": [128, 128], "name": "bert/encoder/layer_5/attention/self/query/kernel", "dtype": "float32"}, {"shape": [128], "name": "bert/encoder/layer_5/attention/self/query/bias", "dtype": "float32"}, {"shape": [128, 128], "name": "bert/encoder/layer_5/attention/self/key/kernel", "dtype": "float32"}, {"shape": [128], "name": "bert/encoder/layer_5/attention/self/key/bias", "dtype": "float32"}, {"shape": [128], "name": "bert/encoder/layer_5/bottleneck/attention/FakeLayerNorm/beta", "dtype": "float32"}, {"shape": [128], "name": "bert/encoder/layer_5/bottleneck/attention/FakeLayerNorm/gamma", "dtype": "float32"}, {"shape": [512, 128], "name": "bert/encoder/layer_5/bottleneck/attention/dense/kernel", "dtype": "float32"}, {"shape": [128], "name": "bert/encoder/layer_5/bottleneck/attention/dense/bias", "dtype": "float32"}, {"shape": [128, 128], "name": "bert/encoder/layer_5/attention/self/value/kernel", "dtype": "float32"}, {"shape": [128], "name": "bert/encoder/layer_5/attention/self/value/bias", "dtype": "float32"}, {"shape": [128], "name": "bert/encoder/layer_5/bottleneck/value/FakeLayerNorm/beta", "dtype": "float32"}, {"shape": [128], "name": "bert/encoder/layer_5/bottleneck/value/FakeLayerNorm/gamma", "dtype": "float32"}, {"shape": [512, 128], "name": "bert/encoder/layer_5/bottleneck/value/dense/kernel", "dtype": "float32"}, {"shape": [128], "name": "bert/encoder/layer_5/bottleneck/value/dense/bias", "dtype": "float32"}, {"shape": [128], "name": "bert/encoder/layer_5/attention/output/dense/bias", "dtype": "float32"}, {"shape": [128], "name": "bert/encoder/layer_5/bottleneck/input/FakeLayerNorm/gamma", "dtype": "float32"}, {"shape": [512, 128], "name": "bert/encoder/layer_5/bottleneck/input/dense/kernel", "dtype": "float32"}, {"shape": [128], "name": "bert/encoder/layer_5/bottleneck/input/dense/bias", "dtype": "float32"}, {"shape": [512], "name": "bert/encoder/layer_4/output/bottleneck/FakeLayerNorm/beta", "dtype": "float32"}, {"shape": [512], "name": "bert/encoder/layer_4/output/bottleneck/FakeLayerNorm/gamma", "dtype": "float32"}, {"shape": [128, 512], "name": "bert/encoder/layer_4/output/bottleneck/dense/kernel", "dtype": "float32"}, {"shape": [512], "name": "bert/encoder/layer_4/output/bottleneck/dense/bias", "dtype": "float32"}, {"shape": [128], "name": "bert/encoder/layer_4/output/FakeLayerNorm/beta", "dtype": "float32"}, {"shape": [128], "name": "bert/encoder/layer_4/output/FakeLayerNorm/gamma", "dtype": "float32"}, {"shape": [512, 128], "name": "bert/encoder/layer_4/output/dense/kernel", "dtype": "float32"}, {"shape": [128], "name": "bert/encoder/layer_4/output/dense/bias", "dtype": "float32"}, {"shape": [128, 512], "name": "bert/encoder/layer_4/intermediate/dense/kernel", "dtype": "float32"}, {"shape": [512], "name": "bert/encoder/layer_4/intermediate/dense/bias", "dtype": "float32"}, {"shape": [128], "name": "bert/encoder/layer_4/ffn_layer_2/output/FakeLayerNorm/beta", "dtype": "float32"}, {"shape": [128], "name": "bert/encoder/layer_4/ffn_layer_2/output/FakeLayerNorm/gamma", "dtype": "float32"}, {"shape": [512, 128], "name": "bert/encoder/layer_4/ffn_layer_2/output/dense/kernel", "dtype": "float32"}, {"shape": [128], "name": "bert/encoder/layer_4/ffn_layer_2/output/dense/bias", "dtype": "float32"}, {"shape": [128, 512], "name": "bert/encoder/layer_4/ffn_layer_2/intermediate/dense/kernel", "dtype": "float32"}, {"shape": [512], "name": "bert/encoder/layer_4/ffn_layer_2/intermediate/dense/bias", "dtype": "float32"}, {"shape": [128], "name": "bert/encoder/layer_4/ffn_layer_1/output/FakeLayerNorm/beta", "dtype": "float32"}, {"shape": [128], "name": "bert/encoder/layer_4/ffn_layer_1/output/FakeLayerNorm/gamma", "dtype": "float32"}, {"shape": [512, 128], "name": "bert/encoder/layer_4/ffn_layer_1/output/dense/kernel", "dtype": "float32"}, {"shape": [128], "name": "bert/encoder/layer_4/ffn_layer_1/output/dense/bias", "dtype": "float32"}, {"shape": [128, 512], "name": "bert/encoder/layer_4/ffn_layer_1/intermediate/dense/kernel", "dtype": "float32"}, {"shape": [512], "name": "bert/encoder/layer_4/ffn_layer_1/intermediate/dense/bias", "dtype": "float32"}, {"shape": [128], "name": "bert/encoder/layer_4/ffn_layer_0/output/FakeLayerNorm/beta", "dtype": "float32"}, {"shape": [128], "name": "bert/encoder/layer_4/ffn_layer_0/output/FakeLayerNorm/gamma", "dtype": "float32"}, {"shape": [512, 128], "name": "bert/encoder/layer_4/ffn_layer_0/output/dense/kernel", "dtype": "float32"}, {"shape": [128], "name": "bert/encoder/layer_4/ffn_layer_0/output/dense/bias", "dtype": "float32"}, {"shape": [128, 512], "name": "bert/encoder/layer_4/ffn_layer_0/intermediate/dense/kernel", "dtype": "float32"}, {"shape": [512], "name": "bert/encoder/layer_4/ffn_layer_0/intermediate/dense/bias", "dtype": "float32"}, {"shape": [128], "name": "bert/encoder/layer_4/attention/output/FakeLayerNorm/beta", "dtype": "float32"}, {"shape": [128], "name": "bert/encoder/layer_4/attention/output/FakeLayerNorm/gamma", "dtype": "float32"}, {"shape": [128, 128], "name": "bert/encoder/layer_4/attention/output/dense/kernel", "dtype": "float32"}, {"shape": [128, 128], "name": "bert/encoder/layer_4/attention/self/query/kernel", "dtype": "float32"}, {"shape": [128], "name": "bert/encoder/layer_4/attention/self/query/bias", "dtype": "float32"}, {"shape": [128, 128], "name": "bert/encoder/layer_4/attention/self/key/kernel", "dtype": "float32"}, {"shape": [128], "name": "bert/encoder/layer_4/attention/self/key/bias", "dtype": "float32"}, {"shape": [128], "name": "bert/encoder/layer_4/bottleneck/attention/FakeLayerNorm/beta", "dtype": "float32"}, {"shape": [128], "name": "bert/encoder/layer_4/bottleneck/attention/FakeLayerNorm/gamma", "dtype": "float32"}, {"shape": [512, 128], "name": "bert/encoder/layer_4/bottleneck/attention/dense/kernel", "dtype": "float32"}, {"shape": [128], "name": "bert/encoder/layer_4/bottleneck/attention/dense/bias", "dtype": "float32"}, {"shape": [128, 128], "name": "bert/encoder/layer_4/attention/self/value/kernel", "dtype": "float32"}, {"shape": [128], "name": "bert/encoder/layer_4/attention/self/value/bias", "dtype": "float32"}, {"shape": [128], "name": "bert/encoder/layer_4/bottleneck/value/FakeLayerNorm/beta", "dtype": "float32"}, {"shape": [128], "name": "bert/encoder/layer_4/bottleneck/value/FakeLayerNorm/gamma", "dtype": "float32"}, {"shape": [512, 128], "name": "bert/encoder/layer_4/bottleneck/value/dense/kernel", "dtype": "float32"}, {"shape": [128], "name": "bert/encoder/layer_4/bottleneck/value/dense/bias", "dtype": "float32"}, {"shape": [128], "name": "bert/encoder/layer_4/attention/output/dense/bias", "dtype": "float32"}, {"shape": [128], "name": "bert/encoder/layer_4/bottleneck/input/FakeLayerNorm/gamma", "dtype": "float32"}, {"shape": [512, 128], "name": "bert/encoder/layer_4/bottleneck/input/dense/kernel", "dtype": "float32"}, {"shape": [128], "name": "bert/encoder/layer_4/bottleneck/input/dense/bias", "dtype": "float32"}, {"shape": [512], "name": "bert/encoder/layer_3/output/bottleneck/FakeLayerNorm/beta", "dtype": "float32"}, {"shape": [512], "name": "bert/encoder/layer_3/output/bottleneck/FakeLayerNorm/gamma", "dtype": "float32"}, {"shape": [128, 512], "name": "bert/encoder/layer_3/output/bottleneck/dense/kernel", "dtype": "float32"}, {"shape": [512], "name": "bert/encoder/layer_3/output/bottleneck/dense/bias", "dtype": "float32"}, {"shape": [128], "name": "bert/encoder/layer_3/output/FakeLayerNorm/beta", "dtype": "float32"}, {"shape": [128], "name": "bert/encoder/layer_3/output/FakeLayerNorm/gamma", "dtype": "float32"}, {"shape": [512, 128], "name": "bert/encoder/layer_3/output/dense/kernel", "dtype": "float32"}, {"shape": [128], "name": "bert/encoder/layer_3/output/dense/bias", "dtype": "float32"}, {"shape": [128, 512], "name": "bert/encoder/layer_3/intermediate/dense/kernel", "dtype": "float32"}, {"shape": [512], "name": "bert/encoder/layer_3/intermediate/dense/bias", "dtype": "float32"}, {"shape": [128], "name": "bert/encoder/layer_3/ffn_layer_2/output/FakeLayerNorm/beta", "dtype": "float32"}, {"shape": [128], "name": "bert/encoder/layer_3/ffn_layer_2/output/FakeLayerNorm/gamma", "dtype": "float32"}, {"shape": [512, 128], "name": "bert/encoder/layer_3/ffn_layer_2/output/dense/kernel", "dtype": "float32"}, {"shape": [128], "name": "bert/encoder/layer_3/ffn_layer_2/output/dense/bias", "dtype": "float32"}, {"shape": [128, 512], "name": "bert/encoder/layer_3/ffn_layer_2/intermediate/dense/kernel", "dtype": "float32"}, {"shape": [512], "name": "bert/encoder/layer_3/ffn_layer_2/intermediate/dense/bias", "dtype": "float32"}, {"shape": [128], "name": "bert/encoder/layer_3/ffn_layer_1/output/FakeLayerNorm/beta", "dtype": "float32"}, {"shape": [128], "name": "bert/encoder/layer_3/ffn_layer_1/output/FakeLayerNorm/gamma", "dtype": "float32"}, {"shape": [512, 128], "name": "bert/encoder/layer_3/ffn_layer_1/output/dense/kernel", "dtype": "float32"}, {"shape": [128], "name": "bert/encoder/layer_3/ffn_layer_1/output/dense/bias", "dtype": "float32"}, {"shape": [128, 512], "name": "bert/encoder/layer_3/ffn_layer_1/intermediate/dense/kernel", "dtype": "float32"}, {"shape": [512], "name": "bert/encoder/layer_3/ffn_layer_1/intermediate/dense/bias", "dtype": "float32"}, {"shape": [128], "name": "bert/encoder/layer_3/ffn_layer_0/output/FakeLayerNorm/beta", "dtype": "float32"}, {"shape": [128], "name": "bert/encoder/layer_3/ffn_layer_0/output/FakeLayerNorm/gamma", "dtype": "float32"}, {"shape": [512, 128], "name": "bert/encoder/layer_3/ffn_layer_0/output/dense/kernel", "dtype": "float32"}, {"shape": [128], "name": "bert/encoder/layer_3/ffn_layer_0/output/dense/bias", "dtype": "float32"}, {"shape": [128, 512], "name": "bert/encoder/layer_3/ffn_layer_0/intermediate/dense/kernel", "dtype": "float32"}, {"shape": [512], "name": "bert/encoder/layer_3/ffn_layer_0/intermediate/dense/bias", "dtype": "float32"}, {"shape": [128], "name": "bert/encoder/layer_3/attention/output/FakeLayerNorm/beta", "dtype": "float32"}, {"shape": [128], "name": "bert/encoder/layer_3/attention/output/FakeLayerNorm/gamma", "dtype": "float32"}, {"shape": [128, 128], "name": "bert/encoder/layer_3/attention/output/dense/kernel", "dtype": "float32"}, {"shape": [128, 128], "name": "bert/encoder/layer_3/attention/self/query/kernel", "dtype": "float32"}, {"shape": [128], "name": "bert/encoder/layer_3/attention/self/query/bias", "dtype": "float32"}, {"shape": [128, 128], "name": "bert/encoder/layer_3/attention/self/key/kernel", "dtype": "float32"}, {"shape": [128], "name": "bert/encoder/layer_3/attention/self/key/bias", "dtype": "float32"}, {"shape": [128], "name": "bert/encoder/layer_3/bottleneck/attention/FakeLayerNorm/beta", "dtype": "float32"}, {"shape": [128], "name": "bert/encoder/layer_3/bottleneck/attention/FakeLayerNorm/gamma", "dtype": "float32"}, {"shape": [512, 128], "name": "bert/encoder/layer_3/bottleneck/attention/dense/kernel", "dtype": "float32"}, {"shape": [128], "name": "bert/encoder/layer_3/bottleneck/attention/dense/bias", "dtype": "float32"}, {"shape": [128, 128], "name": "bert/encoder/layer_3/attention/self/value/kernel", "dtype": "float32"}, {"shape": [128], "name": "bert/encoder/layer_3/attention/self/value/bias", "dtype": "float32"}, {"shape": [128], "name": "bert/encoder/layer_3/bottleneck/value/FakeLayerNorm/beta", "dtype": "float32"}, {"shape": [128], "name": "bert/encoder/layer_3/bottleneck/value/FakeLayerNorm/gamma", "dtype": "float32"}, {"shape": [512, 128], "name": "bert/encoder/layer_3/bottleneck/value/dense/kernel", "dtype": "float32"}, {"shape": [128], "name": "bert/encoder/layer_3/bottleneck/value/dense/bias", "dtype": "float32"}, {"shape": [128], "name": "bert/encoder/layer_3/attention/output/dense/bias", "dtype": "float32"}, {"shape": [128], "name": "bert/encoder/layer_3/bottleneck/input/FakeLayerNorm/gamma", "dtype": "float32"}, {"shape": [512, 128], "name": "bert/encoder/layer_3/bottleneck/input/dense/kernel", "dtype": "float32"}, {"shape": [128], "name": "bert/encoder/layer_3/bottleneck/input/dense/bias", "dtype": "float32"}, {"shape": [512], "name": "bert/encoder/layer_2/output/bottleneck/FakeLayerNorm/beta", "dtype": "float32"}, {"shape": [512], "name": "bert/encoder/layer_2/output/bottleneck/FakeLayerNorm/gamma", "dtype": "float32"}, {"shape": [128, 512], "name": "bert/encoder/layer_2/output/bottleneck/dense/kernel", "dtype": "float32"}, {"shape": [512], "name": "bert/encoder/layer_2/output/bottleneck/dense/bias", "dtype": "float32"}, {"shape": [128], "name": "bert/encoder/layer_2/output/FakeLayerNorm/beta", "dtype": "float32"}, {"shape": [128], "name": "bert/encoder/layer_2/output/FakeLayerNorm/gamma", "dtype": "float32"}, {"shape": [512, 128], "name": "bert/encoder/layer_2/output/dense/kernel", "dtype": "float32"}, {"shape": [128], "name": "bert/encoder/layer_2/output/dense/bias", "dtype": "float32"}, {"shape": [128, 512], "name": "bert/encoder/layer_2/intermediate/dense/kernel", "dtype": "float32"}, {"shape": [512], "name": "bert/encoder/layer_2/intermediate/dense/bias", "dtype": "float32"}, {"shape": [128], "name": "bert/encoder/layer_2/ffn_layer_2/output/FakeLayerNorm/beta", "dtype": "float32"}, {"shape": [128], "name": "bert/encoder/layer_2/ffn_layer_2/output/FakeLayerNorm/gamma", "dtype": "float32"}, {"shape": [512, 128], "name": "bert/encoder/layer_2/ffn_layer_2/output/dense/kernel", "dtype": "float32"}, {"shape": [128], "name": "bert/encoder/layer_2/ffn_layer_2/output/dense/bias", "dtype": "float32"}, {"shape": [128, 512], "name": "bert/encoder/layer_2/ffn_layer_2/intermediate/dense/kernel", "dtype": "float32"}, {"shape": [512], "name": "bert/encoder/layer_2/ffn_layer_2/intermediate/dense/bias", "dtype": "float32"}, {"shape": [128], "name": "bert/encoder/layer_2/ffn_layer_1/output/FakeLayerNorm/beta", "dtype": "float32"}, {"shape": [128], "name": "bert/encoder/layer_2/ffn_layer_1/output/FakeLayerNorm/gamma", "dtype": "float32"}, {"shape": [512, 128], "name": "bert/encoder/layer_2/ffn_layer_1/output/dense/kernel", "dtype": "float32"}, {"shape": [128], "name": "bert/encoder/layer_2/ffn_layer_1/output/dense/bias", "dtype": "float32"}, {"shape": [128, 512], "name": "bert/encoder/layer_2/ffn_layer_1/intermediate/dense/kernel", "dtype": "float32"}, {"shape": [512], "name": "bert/encoder/layer_2/ffn_layer_1/intermediate/dense/bias", "dtype": "float32"}, {"shape": [128], "name": "bert/encoder/layer_2/ffn_layer_0/output/FakeLayerNorm/beta", "dtype": "float32"}, {"shape": [128], "name": "bert/encoder/layer_2/ffn_layer_0/output/FakeLayerNorm/gamma", "dtype": "float32"}, {"shape": [512, 128], "name": "bert/encoder/layer_2/ffn_layer_0/output/dense/kernel", "dtype": "float32"}, {"shape": [128], "name": "bert/encoder/layer_2/ffn_layer_0/output/dense/bias", "dtype": "float32"}, {"shape": [128, 512], "name": "bert/encoder/layer_2/ffn_layer_0/intermediate/dense/kernel", "dtype": "float32"}, {"shape": [512], "name": "bert/encoder/layer_2/ffn_layer_0/intermediate/dense/bias", "dtype": "float32"}, {"shape": [128], "name": "bert/encoder/layer_2/attention/output/FakeLayerNorm/beta", "dtype": "float32"}, {"shape": [128], "name": "bert/encoder/layer_2/attention/output/FakeLayerNorm/gamma", "dtype": "float32"}, {"shape": [128, 128], "name": "bert/encoder/layer_2/attention/output/dense/kernel", "dtype": "float32"}, {"shape": [128, 128], "name": "bert/encoder/layer_2/attention/self/query/kernel", "dtype": "float32"}, {"shape": [128], "name": "bert/encoder/layer_2/attention/self/query/bias", "dtype": "float32"}, {"shape": [128, 128], "name": "bert/encoder/layer_2/attention/self/key/kernel", "dtype": "float32"}, {"shape": [128], "name": "bert/encoder/layer_2/attention/self/key/bias", "dtype": "float32"}, {"shape": [128], "name": "bert/encoder/layer_2/bottleneck/attention/FakeLayerNorm/beta", "dtype": "float32"}, {"shape": [128], "name": "bert/encoder/layer_2/bottleneck/attention/FakeLayerNorm/gamma", "dtype": "float32"}, {"shape": [512, 128], "name": "bert/encoder/layer_2/bottleneck/attention/dense/kernel", "dtype": "float32"}, {"shape": [128], "name": "bert/encoder/layer_2/bottleneck/attention/dense/bias", "dtype": "float32"}, {"shape": [128, 128], "name": "bert/encoder/layer_2/attention/self/value/kernel", "dtype": "float32"}, {"shape": [128], "name": "bert/encoder/layer_2/attention/self/value/bias", "dtype": "float32"}, {"shape": [128], "name": "bert/encoder/layer_2/bottleneck/value/FakeLayerNorm/beta", "dtype": "float32"}, {"shape": [128], "name": "bert/encoder/layer_2/bottleneck/value/FakeLayerNorm/gamma", "dtype": "float32"}, {"shape": [512, 128], "name": "bert/encoder/layer_2/bottleneck/value/dense/kernel", "dtype": "float32"}, {"shape": [128], "name": "bert/encoder/layer_2/bottleneck/value/dense/bias", "dtype": "float32"}, {"shape": [128], "name": "bert/encoder/layer_2/attention/output/dense/bias", "dtype": "float32"}, {"shape": [128], "name": "bert/encoder/layer_2/bottleneck/input/FakeLayerNorm/gamma", "dtype": "float32"}, {"shape": [512, 128], "name": "bert/encoder/layer_2/bottleneck/input/dense/kernel", "dtype": "float32"}, {"shape": [128], "name": "bert/encoder/layer_2/bottleneck/input/dense/bias", "dtype": "float32"}, {"shape": [512], "name": "bert/encoder/layer_1/output/bottleneck/FakeLayerNorm/beta", "dtype": "float32"}, {"shape": [512], "name": "bert/encoder/layer_1/output/bottleneck/FakeLayerNorm/gamma", "dtype": "float32"}, {"shape": [128, 512], "name": "bert/encoder/layer_1/output/bottleneck/dense/kernel", "dtype": "float32"}, {"shape": [512], "name": "bert/encoder/layer_1/output/bottleneck/dense/bias", "dtype": "float32"}, {"shape": [128], "name": "bert/encoder/layer_1/output/FakeLayerNorm/beta", "dtype": "float32"}, {"shape": [128], "name": "bert/encoder/layer_1/output/FakeLayerNorm/gamma", "dtype": "float32"}, {"shape": [512, 128], "name": "bert/encoder/layer_1/output/dense/kernel", "dtype": "float32"}, {"shape": [128], "name": "bert/encoder/layer_1/output/dense/bias", "dtype": "float32"}, {"shape": [128, 512], "name": "bert/encoder/layer_1/intermediate/dense/kernel", "dtype": "float32"}, {"shape": [512], "name": "bert/encoder/layer_1/intermediate/dense/bias", "dtype": "float32"}, {"shape": [128], "name": "bert/encoder/layer_1/ffn_layer_2/output/FakeLayerNorm/beta", "dtype": "float32"}, {"shape": [128], "name": "bert/encoder/layer_1/ffn_layer_2/output/FakeLayerNorm/gamma", "dtype": "float32"}, {"shape": [512, 128], "name": "bert/encoder/layer_1/ffn_layer_2/output/dense/kernel", "dtype": "float32"}, {"shape": [128], "name": "bert/encoder/layer_1/ffn_layer_2/output/dense/bias", "dtype": "float32"}, {"shape": [128, 512], "name": "bert/encoder/layer_1/ffn_layer_2/intermediate/dense/kernel", "dtype": "float32"}, {"shape": [512], "name": "bert/encoder/layer_1/ffn_layer_2/intermediate/dense/bias", "dtype": "float32"}, {"shape": [128], "name": "bert/encoder/layer_1/ffn_layer_1/output/FakeLayerNorm/beta", "dtype": "float32"}, {"shape": [128], "name": "bert/encoder/layer_1/ffn_layer_1/output/FakeLayerNorm/gamma", "dtype": "float32"}, {"shape": [512, 128], "name": "bert/encoder/layer_1/ffn_layer_1/output/dense/kernel", "dtype": "float32"}, {"shape": [128], "name": "bert/encoder/layer_1/ffn_layer_1/output/dense/bias", "dtype": "float32"}, {"shape": [128, 512], "name": "bert/encoder/layer_1/ffn_layer_1/intermediate/dense/kernel", "dtype": "float32"}, {"shape": [512], "name": "bert/encoder/layer_1/ffn_layer_1/intermediate/dense/bias", "dtype": "float32"}, {"shape": [128], "name": "bert/encoder/layer_1/ffn_layer_0/output/FakeLayerNorm/beta", "dtype": "float32"}, {"shape": [128], "name": "bert/encoder/layer_1/ffn_layer_0/output/FakeLayerNorm/gamma", "dtype": "float32"}, {"shape": [512, 128], "name": "bert/encoder/layer_1/ffn_layer_0/output/dense/kernel", "dtype": "float32"}, {"shape": [128], "name": "bert/encoder/layer_1/ffn_layer_0/output/dense/bias", "dtype": "float32"}, {"shape": [128, 512], "name": "bert/encoder/layer_1/ffn_layer_0/intermediate/dense/kernel", "dtype": "float32"}, {"shape": [512], "name": "bert/encoder/layer_1/ffn_layer_0/intermediate/dense/bias", "dtype": "float32"}, {"shape": [128], "name": "bert/encoder/layer_1/attention/output/FakeLayerNorm/beta", "dtype": "float32"}, {"shape": [128], "name": "bert/encoder/layer_1/attention/output/FakeLayerNorm/gamma", "dtype": "float32"}, {"shape": [128, 128], "name": "bert/encoder/layer_1/attention/output/dense/kernel", "dtype": "float32"}, {"shape": [128, 128], "name": "bert/encoder/layer_1/attention/self/query/kernel", "dtype": "float32"}, {"shape": [128], "name": "bert/encoder/layer_1/attention/self/query/bias", "dtype": "float32"}, {"shape": [128, 128], "name": "bert/encoder/layer_1/attention/self/key/kernel", "dtype": "float32"}, {"shape": [128], "name": "bert/encoder/layer_1/attention/self/key/bias", "dtype": "float32"}, {"shape": [128], "name": "bert/encoder/layer_1/bottleneck/attention/FakeLayerNorm/beta", "dtype": "float32"}, {"shape": [128], "name": "bert/encoder/layer_1/bottleneck/attention/FakeLayerNorm/gamma", "dtype": "float32"}, {"shape": [512, 128], "name": "bert/encoder/layer_1/bottleneck/attention/dense/kernel", "dtype": "float32"}, {"shape": [128], "name": "bert/encoder/layer_1/bottleneck/attention/dense/bias", "dtype": "float32"}, {"shape": [128, 128], "name": "bert/encoder/layer_1/attention/self/value/kernel", "dtype": "float32"}, {"shape": [128], "name": "bert/encoder/layer_1/attention/self/value/bias", "dtype": "float32"}, {"shape": [128], "name": "bert/encoder/layer_1/bottleneck/value/FakeLayerNorm/beta", "dtype": "float32"}, {"shape": [128], "name": "bert/encoder/layer_1/bottleneck/value/FakeLayerNorm/gamma", "dtype": "float32"}, {"shape": [512, 128], "name": "bert/encoder/layer_1/bottleneck/value/dense/kernel", "dtype": "float32"}, {"shape": [128], "name": "bert/encoder/layer_1/bottleneck/value/dense/bias", "dtype": "float32"}, {"shape": [128], "name": "bert/encoder/layer_1/attention/output/dense/bias", "dtype": "float32"}, {"shape": [128], "name": "bert/encoder/layer_1/bottleneck/input/FakeLayerNorm/gamma", "dtype": "float32"}, {"shape": [512, 128], "name": "bert/encoder/layer_1/bottleneck/input/dense/kernel", "dtype": "float32"}, {"shape": [128], "name": "bert/encoder/layer_1/bottleneck/input/dense/bias", "dtype": "float32"}, {"shape": [512], "name": "bert/encoder/layer_0/output/bottleneck/FakeLayerNorm/beta", "dtype": "float32"}, {"shape": [512], "name": "bert/encoder/layer_0/output/bottleneck/FakeLayerNorm/gamma", "dtype": "float32"}, {"shape": [128, 512], "name": "bert/encoder/layer_0/output/bottleneck/dense/kernel", "dtype": "float32"}, {"shape": [512], "name": "bert/encoder/layer_0/output/bottleneck/dense/bias", "dtype": "float32"}, {"shape": [128], "name": "bert/encoder/layer_0/output/FakeLayerNorm/beta", "dtype": "float32"}, {"shape": [128], "name": "bert/encoder/layer_0/output/FakeLayerNorm/gamma", "dtype": "float32"}, {"shape": [512, 128], "name": "bert/encoder/layer_0/output/dense/kernel", "dtype": "float32"}, {"shape": [128], "name": "bert/encoder/layer_0/output/dense/bias", "dtype": "float32"}, {"shape": [128, 512], "name": "bert/encoder/layer_0/intermediate/dense/kernel", "dtype": "float32"}, {"shape": [512], "name": "bert/encoder/layer_0/intermediate/dense/bias", "dtype": "float32"}, {"shape": [128], "name": "bert/encoder/layer_0/ffn_layer_2/output/FakeLayerNorm/beta", "dtype": "float32"}, {"shape": [128], "name": "bert/encoder/layer_0/ffn_layer_2/output/FakeLayerNorm/gamma", "dtype": "float32"}, {"shape": [512, 128], "name": "bert/encoder/layer_0/ffn_layer_2/output/dense/kernel", "dtype": "float32"}, {"shape": [128], "name": "bert/encoder/layer_0/ffn_layer_2/output/dense/bias", "dtype": "float32"}, {"shape": [128, 512], "name": "bert/encoder/layer_0/ffn_layer_2/intermediate/dense/kernel", "dtype": "float32"}, {"shape": [512], "name": "bert/encoder/layer_0/ffn_layer_2/intermediate/dense/bias", "dtype": "float32"}, {"shape": [128], "name": "bert/encoder/layer_0/ffn_layer_1/output/FakeLayerNorm/beta", "dtype": "float32"}, {"shape": [128], "name": "bert/encoder/layer_0/ffn_layer_1/output/FakeLayerNorm/gamma", "dtype": "float32"}, {"shape": [512, 128], "name": "bert/encoder/layer_0/ffn_layer_1/output/dense/kernel", "dtype": "float32"}, {"shape": [128], "name": "bert/encoder/layer_0/ffn_layer_1/output/dense/bias", "dtype": "float32"}, {"shape": [128, 512], "name": "bert/encoder/layer_0/ffn_layer_1/intermediate/dense/kernel", "dtype": "float32"}, {"shape": [512], "name": "bert/encoder/layer_0/ffn_layer_1/intermediate/dense/bias", "dtype": "float32"}, {"shape": [128], "name": "bert/encoder/layer_0/ffn_layer_0/output/FakeLayerNorm/beta", "dtype": "float32"}, {"shape": [128], "name": "bert/encoder/layer_0/ffn_layer_0/output/FakeLayerNorm/gamma", "dtype": "float32"}, {"shape": [512, 128], "name": "bert/encoder/layer_0/ffn_layer_0/output/dense/kernel", "dtype": "float32"}, {"shape": [128], "name": "bert/encoder/layer_0/ffn_layer_0/output/dense/bias", "dtype": "float32"}, {"shape": [128, 512], "name": "bert/encoder/layer_0/ffn_layer_0/intermediate/dense/kernel", "dtype": "float32"}, {"shape": [512], "name": "bert/encoder/layer_0/ffn_layer_0/intermediate/dense/bias", "dtype": "float32"}, {"shape": [128], "name": "bert/encoder/layer_0/attention/output/FakeLayerNorm/beta", "dtype": "float32"}, {"shape": [128], "name": "bert/encoder/layer_0/attention/output/FakeLayerNorm/gamma", "dtype": "float32"}, {"shape": [128, 128], "name": "bert/encoder/layer_0/attention/output/dense/kernel", "dtype": "float32"}, {"shape": [128, 128], "name": "bert/encoder/layer_0/attention/self/query/kernel", "dtype": "float32"}, {"shape": [128], "name": "bert/encoder/layer_0/attention/self/query/bias", "dtype": "float32"}, {"shape": [128, 128], "name": "bert/encoder/layer_0/attention/self/key/kernel", "dtype": "float32"}, {"shape": [128], "name": "bert/encoder/layer_0/attention/self/key/bias", "dtype": "float32"}, {"shape": [128], "name": "bert/encoder/layer_0/bottleneck/attention/FakeLayerNorm/beta", "dtype": "float32"}, {"shape": [128], "name": "bert/encoder/layer_0/bottleneck/attention/FakeLayerNorm/gamma", "dtype": "float32"}, {"shape": [512, 128], "name": "bert/encoder/layer_0/bottleneck/attention/dense/kernel", "dtype": "float32"}, {"shape": [128], "name": "bert/encoder/layer_0/bottleneck/attention/dense/bias", "dtype": "float32"}, {"shape": [], "name": "bert/encoder/layer_23/attention/self/Mul/y", "dtype": "float32"}, {"shape": [], "name": "bert/encoder/layer_23/attention/self/mul_1/y", "dtype": "float32"}, {"shape": [], "name": "bert/encoder/ones/packed/2", "dtype": "int32"}, {"shape": [], "name": "bert/encoder/layer_23/attention/self/sub/x", "dtype": "float32"}, {"shape": [128, 128], "name": "bert/encoder/layer_0/attention/self/value/kernel", "dtype": "float32"}, {"shape": [128], "name": "bert/encoder/layer_0/attention/self/value/bias", "dtype": "float32"}, {"shape": [128], "name": "bert/encoder/layer_0/bottleneck/value/FakeLayerNorm/beta", "dtype": "float32"}, {"shape": [128], "name": "bert/encoder/layer_0/bottleneck/value/FakeLayerNorm/gamma", "dtype": "float32"}, {"shape": [512, 128], "name": "bert/encoder/layer_0/bottleneck/value/dense/kernel", "dtype": "float32"}, {"shape": [128], "name": "bert/encoder/layer_0/bottleneck/value/dense/bias", "dtype": "float32"}, {"shape": [], "name": "bert/encoder/layer_23/attention/self/query/Reshape_1/shape/2", "dtype": "int32"}, {"shape": [], "name": "bert/encoder/layer_23/attention/self/query/Reshape_1/shape/3", "dtype": "int32"}, {"shape": [4], "name": "bert/encoder/layer_23/attention/self/transpose/perm", "dtype": "int32"}, {"shape": [128], "name": "bert/encoder/layer_0/attention/output/dense/bias", "dtype": "float32"}, {"shape": [128], "name": "bert/encoder/layer_0/bottleneck/input/FakeLayerNorm/gamma", "dtype": "float32"}, {"shape": [512, 128], "name": "bert/encoder/layer_0/bottleneck/input/dense/kernel", "dtype": "float32"}, {"shape": [128], "name": "bert/encoder/layer_0/bottleneck/input/dense/bias", "dtype": "float32"}, {"shape": [512], "name": "bert/embeddings/FakeLayerNorm/beta", "dtype": "float32"}, {"shape": [512], "name": "bert/embeddings/FakeLayerNorm/gamma", "dtype": "float32"}, {"shape": [1, 384, 512], "name": "bert/embeddings/Reshape_1", "dtype": "float32"}, {"shape": [2, 512], "name": "bert/embeddings/token_type_embeddings", "dtype": "float32"}, {"shape": [384, 512], "name": "bert/embeddings/embedding_transformation/kernel", "dtype": "float32"}, {"shape": [512], "name": "bert/embeddings/embedding_transformation/bias", "dtype": "float32"}, {"shape": [2], "name": "bert/embeddings/strided_slice_1/stack", "dtype": "int32"}, {"shape": [3, 2], "name": "bert/embeddings/Pad/paddings", "dtype": "int32"}, {"shape": [30522, 128], "name": "bert/embeddings/word_embeddings", "dtype": "float32"}, {"shape": [], "name": "bert/embeddings/embedding_lookup/axis", "dtype": "int32"}, {"shape": [1], "name": "bert/embeddings/ExpandDims/dim", "dtype": "int32"}, {"shape": [2], "name": "bert/embeddings/strided_slice_1/stack_1", "dtype": "int32"}, {"shape": [2], "name": "bert/embeddings/strided_slice_2/stack_1", "dtype": "int32"}, {"shape": [2], "name": "bert/embeddings/strided_slice_1/stack_2", "dtype": "int32"}, {"shape": [3, 2], "name": "bert/embeddings/Pad_1/paddings", "dtype": "int32"}, {"shape": [], "name": "bert/encoder/layer_23/output/bottleneck/dense/Reshape/shape/1", "dtype": "int32"}, {"shape": [], "name": "Reshape/shape/1", "dtype": "int32"}, {"shape": [1], "name": "bert/encoder/layer_23/intermediate/strided_slice_1/stack", "dtype": "int32"}, {"shape": [1], "name": "bert/encoder/layer_23/intermediate/strided_slice_1/stack_1", "dtype": "int32"}, {"shape": [], "name": "mul/y", "dtype": "int32"}, {"shape": [], "name": "bert/embeddings/concat/axis", "dtype": "int32"}, {"shape": [3], "name": "transpose/perm", "dtype": "int32"}]}], "userDefinedMetadata": {"signature": {"inputs": {"segment_ids:0": {"tensorShape": {"dim": [{"size": "-1"}, {"size": "384"}]}, "name": "segment_ids:0", "dtype": "DT_INT32"}, "input_ids:0": {"tensorShape": {"dim": [{"size": "-1"}, {"size": "384"}]}, "name": "input_ids:0", "dtype": "DT_INT32"}, "global_step:0": {"tensorShape": {}, "name": "global_step:0", "dtype": "DT_RESOURCE"}, "input_mask:0": {"tensorShape": {"dim": [{"size": "-1"}, {"size": "384"}]}, "name": "input_mask:0", "dtype": "DT_INT32"}}, "outputs": {"start_logits:0": {"tensorShape": {"dim": [{"size": "-1"}, {"size": "384"}]}, "name": "start_logits:0", "dtype": "DT_FLOAT"}, "end_logits:0": {"tensorShape": {"dim": [{"size": "-1"}, {"size": "384"}]}, "name": "end_logits:0", "dtype": "DT_FLOAT"}}}}}